module attributes {iree_codegen.tuning_spec_with_default_entrypoint, transform.with_named_sequence} {
  transform.named_sequence @apply_op_config(%arg0: !transform.any_op {transform.readonly}, %arg1: !transform.any_param {transform.readonly}) {
    transform.annotate %arg0 "compilation_info" = %arg1 : !transform.any_op, !transform.any_param
    transform.yield
  }
  transform.named_sequence @match_conv_2d_bfloat16_forward_16x24x16x288_nhwc_288x3x1x96_fhwc_nhwf_1x1s_1x0p_1x1d_3g$async_dispatch_0_conv_16x24x16x3x96x3x96_bf16xbf16xf32(%arg0: !transform.any_op {transform.readonly}) -> (!transform.any_op, !transform.any_param) {
    %inputs, %outputs = transform.iree.match.cast_compatible_dag_from_root %arg0 {
    ^bb0(%arg1: tensor<16x26x16x3x96xbf16>, %arg2: tensor<3x96x3x96xbf16>, %arg3: tensor<16x24x16x3x96xf32>):
      %1 = linalg.generic {indexing_maps = [affine_map<(d0, d1, d2, d3, d4, d5, d6) -> (d0, d1 + d5, d2, d3, d6)>, affine_map<(d0, d1, d2, d3, d4, d5, d6) -> (d3, d4, d5, d6)>, affine_map<(d0, d1, d2, d3, d4, d5, d6) -> (d0, d1, d2, d3, d4)>], iterator_types = ["parallel", "parallel", "parallel", "parallel", "parallel", "reduction", "reduction"]} ins(%arg1, %arg2 : tensor<16x26x16x3x96xbf16>, tensor<3x96x3x96xbf16>) outs(%arg3 : tensor<16x24x16x3x96xf32>) {
      ^bb0(%in: bf16, %in_0: bf16, %out: f32):
        %2 = arith.extf %in : bf16 to f32
        %3 = arith.extf %in_0 : bf16 to f32
        %4 = arith.mulf %2, %3 : f32
        %5 = arith.addf %out, %4 : f32
        linalg.yield %5 : f32
      } -> tensor<16x24x16x3x96xf32>
    } : (!transform.any_op) -> (!transform.any_value, !transform.any_value)
    %0 = transform.param.constant #iree_codegen.compilation_info<lowering_config = #iree_gpu.lowering_config<{mma_kind = #iree_gpu.mma_layout<MFMA_F32_16x16x16_BF16>, promote_operands = [0, 1], reduction = [0, 0, 0, 0, 0, 6], subgroup = [2, 1, 1, 1, 2, 0], subgroup_m_count = 2 : i64, subgroup_n_count = 3 : i64, workgroup = [2, 2, 16, 1, 96, 0]}>, translation_info = <pipeline = LLVMGPUTileAndFuse workgroup_size = [384, 1, 1] subgroup_size = 64, {gpu_pipeline_options = #iree_gpu.pipeline_options<prefetch_shared_memory = true, use_igemm_convolution = true>, llvm_func_attrs = {"amdgpu-waves-per-eu" = "2"}}>> -> !transform.any_param
    transform.yield %arg0, %0 : !transform.any_op, !transform.any_param
  }
  transform.named_sequence @"module-8838592581327294770_apply_op_config"(%arg0: !transform.any_op {transform.readonly}, %arg1: !transform.any_param {transform.readonly}) {
    transform.annotate %arg0 "compilation_info" = %arg1 : !transform.any_op, !transform.any_param
    transform.yield
  }
  transform.named_sequence @match_conv_2d_bfloat16_forward_128x24x48x384_nhwc_512x1x1x384_fhwc_nhwf_1x1s_0x0p_1x1d_1g$async_dispatch_0_matmul_like_147456x512x384_bf16xbf16xf32(%arg0: !transform.any_op {transform.readonly}) -> (!transform.any_op, !transform.any_param) {
    %inputs, %outputs = transform.iree.match.cast_compatible_dag_from_root %arg0 {
    ^bb0(%arg1: tensor<147456x384xbf16>, %arg2: tensor<512x384xbf16>, %arg3: tensor<147456x512xf32>):
      %1 = linalg.generic {indexing_maps = [affine_map<(d0, d1, d2) -> (d0, d2)>, affine_map<(d0, d1, d2) -> (d1, d2)>, affine_map<(d0, d1, d2) -> (d0, d1)>], iterator_types = ["parallel", "parallel", "reduction"]} ins(%arg1, %arg2 : tensor<147456x384xbf16>, tensor<512x384xbf16>) outs(%arg3 : tensor<147456x512xf32>) {
      ^bb0(%in: bf16, %in_0: bf16, %out: f32):
        %2 = arith.extf %in : bf16 to f32
        %3 = arith.extf %in_0 : bf16 to f32
        %4 = arith.mulf %2, %3 : f32
        %5 = arith.addf %out, %4 : f32
        linalg.yield %5 : f32
      } -> tensor<147456x512xf32>
    } : (!transform.any_op) -> (!transform.any_value, !transform.any_value)
    %0 = transform.param.constant #iree_codegen.compilation_info<lowering_config = #iree_gpu.lowering_config<{mma_kind = #iree_gpu.mma_layout<MFMA_F32_32x32x8_BF16>, promote_operands = [0, 1], reduction = [0, 0, 4], subgroup = [2, 2, 0], subgroup_m_count = 2 : i64, subgroup_n_count = 4 : i64, workgroup = [128, 256, 0]}>, translation_info = <pipeline = LLVMGPUTileAndFuse workgroup_size = [512, 1, 1] subgroup_size = 64, {gpu_pipeline_options = #iree_gpu.pipeline_options<prefetch_shared_memory = true>, llvm_func_attrs = {"amdgpu-waves-per-eu" = "2"}}>> -> !transform.any_param
    transform.yield %arg0, %0 : !transform.any_op, !transform.any_param
  }
  transform.named_sequence @"module-4092354048484454229_apply_op_config"(%arg0: !transform.any_op {transform.readonly}, %arg1: !transform.any_param {transform.readonly}) {
    transform.annotate %arg0 "compilation_info" = %arg1 : !transform.any_op, !transform.any_param
    transform.yield
  }
  transform.named_sequence @match_conv_2d_bfloat16_forward_16x96x64x96_nhwc_96x1x1x96_fhwc_nhwf_1x1s_0x0p_1x1d_1g$async_dispatch_0_matmul_like_98304x96x96_bf16xbf16xf32(%arg0: !transform.any_op {transform.readonly}) -> (!transform.any_op, !transform.any_param) {
    %inputs, %outputs = transform.iree.match.cast_compatible_dag_from_root %arg0 {
    ^bb0(%arg1: tensor<98304x96xbf16>, %arg2: tensor<96x96xbf16>, %arg3: tensor<98304x96xf32>):
      %1 = linalg.generic {indexing_maps = [affine_map<(d0, d1, d2) -> (d0, d2)>, affine_map<(d0, d1, d2) -> (d1, d2)>, affine_map<(d0, d1, d2) -> (d0, d1)>], iterator_types = ["parallel", "parallel", "reduction"]} ins(%arg1, %arg2 : tensor<98304x96xbf16>, tensor<96x96xbf16>) outs(%arg3 : tensor<98304x96xf32>) {
      ^bb0(%in: bf16, %in_0: bf16, %out: f32):
        %2 = arith.extf %in : bf16 to f32
        %3 = arith.extf %in_0 : bf16 to f32
        %4 = arith.mulf %2, %3 : f32
        %5 = arith.addf %out, %4 : f32
        linalg.yield %5 : f32
      } -> tensor<98304x96xf32>
    } : (!transform.any_op) -> (!transform.any_value, !transform.any_value)
    %0 = transform.param.constant #iree_codegen.compilation_info<lowering_config = #iree_gpu.lowering_config<{mma_kind = #iree_gpu.mma_layout<MFMA_F32_16x16x16_BF16>, promote_operands = [0, 1], reduction = [0, 0, 6], subgroup = [3, 1, 0], subgroup_m_count = 1 : i64, subgroup_n_count = 3 : i64, workgroup = [48, 48, 0]}>, translation_info = <pipeline = LLVMGPUTileAndFuse workgroup_size = [192, 1, 1] subgroup_size = 64, {gpu_pipeline_options = #iree_gpu.pipeline_options<prefetch_shared_memory = true>, llvm_func_attrs = {"amdgpu-waves-per-eu" = "2"}}>> -> !transform.any_param
    transform.yield %arg0, %0 : !transform.any_op, !transform.any_param
  }
  transform.named_sequence @module2689198279833294263_apply_op_config(%arg0: !transform.any_op {transform.readonly}, %arg1: !transform.any_param {transform.readonly}) {
    transform.annotate %arg0 "compilation_info" = %arg1 : !transform.any_op, !transform.any_param
    transform.yield
  }
  transform.named_sequence @match_conv_2d_bfloat16_forward_16x48x32x48_nhwc_48x5x5x48_fhwc_nhwf_1x1s_8x8p_4x4d_1g$async_dispatch_0_conv_16x48x32x48x5x5x48_bf16xbf16xf32(%arg0: !transform.any_op {transform.readonly}) -> (!transform.any_op, !transform.any_param) {
    %inputs, %outputs = transform.iree.match.cast_compatible_dag_from_root %arg0 {
    ^bb0(%arg1: tensor<16x64x48x48xbf16>, %arg2: tensor<48x5x5x48xbf16>, %arg3: tensor<16x48x32x48xf32>):
      %1 = linalg.generic {indexing_maps = [affine_map<(d0, d1, d2, d3, d4, d5, d6) -> (d0, d1 + d4 * 4, d2 + d5 * 4, d6)>, affine_map<(d0, d1, d2, d3, d4, d5, d6) -> (d3, d4, d5, d6)>, affine_map<(d0, d1, d2, d3, d4, d5, d6) -> (d0, d1, d2, d3)>], iterator_types = ["parallel", "parallel", "parallel", "parallel", "reduction", "reduction", "reduction"]} ins(%arg1, %arg2 : tensor<16x64x48x48xbf16>, tensor<48x5x5x48xbf16>) outs(%arg3 : tensor<16x48x32x48xf32>) {
      ^bb0(%in: bf16, %in_0: bf16, %out: f32):
        %2 = arith.extf %in : bf16 to f32
        %3 = arith.extf %in_0 : bf16 to f32
        %4 = arith.mulf %2, %3 : f32
        %5 = arith.addf %out, %4 : f32
        linalg.yield %5 : f32
      } -> tensor<16x48x32x48xf32>
    } : (!transform.any_op) -> (!transform.any_value, !transform.any_value)
    %0 = transform.param.constant #iree_codegen.compilation_info<lowering_config = #iree_gpu.lowering_config<{mma_kind = #iree_gpu.mma_layout<MFMA_F32_32x32x8_BF16>, padding = [1, 2, 32, 64, 48], promote_operands = [0, 1, 2], reduction = [0, 0, 0, 0, 6], subgroup = [1, 2, 1, 1, 0], subgroup_m_count = 1 : i64, subgroup_n_count = 2 : i64, workgroup = [1, 2, 32, 64, 0]}>, translation_info = <pipeline = LLVMGPUTileAndFuse workgroup_size = [128, 1, 1] subgroup_size = 64, {gpu_pipeline_options = #iree_gpu.pipeline_options<prefetch_shared_memory = true, use_igemm_convolution = true>, llvm_func_attrs = {"amdgpu-waves-per-eu" = "2"}}>> -> !transform.any_param
    transform.yield %arg0, %0 : !transform.any_op, !transform.any_param
  }
  transform.named_sequence @module3994070714556536465_apply_op_config(%arg0: !transform.any_op {transform.readonly}, %arg1: !transform.any_param {transform.readonly}) {
    transform.annotate %arg0 "compilation_info" = %arg1 : !transform.any_op, !transform.any_param
    transform.yield
  }
  transform.named_sequence @match_conv_2d_bfloat16_forward_16x48x32x576_nhwc_576x1x1x576_fhwc_nhwf_1x1s_0x0p_1x1d_1g$async_dispatch_0_matmul_like_24576x576x576_bf16xbf16xf32(%arg0: !transform.any_op {transform.readonly}) -> (!transform.any_op, !transform.any_param) {
    %inputs, %outputs = transform.iree.match.cast_compatible_dag_from_root %arg0 {
    ^bb0(%arg1: tensor<24576x576xbf16>, %arg2: tensor<576x576xbf16>, %arg3: tensor<24576x576xf32>):
      %1 = linalg.generic {indexing_maps = [affine_map<(d0, d1, d2) -> (d0, d2)>, affine_map<(d0, d1, d2) -> (d1, d2)>, affine_map<(d0, d1, d2) -> (d0, d1)>], iterator_types = ["parallel", "parallel", "reduction"]} ins(%arg1, %arg2 : tensor<24576x576xbf16>, tensor<576x576xbf16>) outs(%arg3 : tensor<24576x576xf32>) {
      ^bb0(%in: bf16, %in_0: bf16, %out: f32):
        %2 = arith.extf %in : bf16 to f32
        %3 = arith.extf %in_0 : bf16 to f32
        %4 = arith.mulf %2, %3 : f32
        %5 = arith.addf %out, %4 : f32
        linalg.yield %5 : f32
      } -> tensor<24576x576xf32>
    } : (!transform.any_op) -> (!transform.any_value, !transform.any_value)
    %0 = transform.param.constant #iree_codegen.compilation_info<lowering_config = #iree_gpu.lowering_config<{mma_kind = #iree_gpu.mma_layout<MFMA_F32_16x16x16_BF16>, promote_operands = [0, 1], reduction = [0, 0, 4], subgroup = [4, 6, 0], subgroup_m_count = 4 : i64, subgroup_n_count = 2 : i64, workgroup = [256, 192, 0]}>, translation_info = <pipeline = LLVMGPUTileAndFuse workgroup_size = [512, 1, 1] subgroup_size = 64, {gpu_pipeline_options = #iree_gpu.pipeline_options<prefetch_shared_memory = true>, llvm_func_attrs = {"amdgpu-waves-per-eu" = "2"}}>> -> !transform.any_param
    transform.yield %arg0, %0 : !transform.any_op, !transform.any_param
  }
  transform.named_sequence @module5276668663876473507_apply_op_config(%arg0: !transform.any_op {transform.readonly}, %arg1: !transform.any_param {transform.readonly}) {
    transform.annotate %arg0 "compilation_info" = %arg1 : !transform.any_op, !transform.any_param
    transform.yield
  }
  transform.named_sequence @match_conv_2d_bfloat16_forward_16x48x32x480_nhwc_480x1x1x96_fhwc_nhwf_1x1s_0x0p_1x1d_5g$async_dispatch_0_matmul_like_16x48x32x5x96x96_bf16xbf16xf32(%arg0: !transform.any_op {transform.readonly}) -> (!transform.any_op, !transform.any_param) {
    %inputs, %outputs = transform.iree.match.cast_compatible_dag_from_root %arg0 {
    ^bb0(%arg1: tensor<16x48x32x5x96xbf16>, %arg2: tensor<5x96x96xbf16>, %arg3: tensor<16x48x32x5x96xf32>):
      %1 = linalg.generic {indexing_maps = [affine_map<(d0, d1, d2, d3, d4, d5) -> (d0, d1, d2, d3, d5)>, affine_map<(d0, d1, d2, d3, d4, d5) -> (d3, d4, d5)>, affine_map<(d0, d1, d2, d3, d4, d5) -> (d0, d1, d2, d3, d4)>], iterator_types = ["parallel", "parallel", "parallel", "parallel", "parallel", "reduction"]} ins(%arg1, %arg2 : tensor<16x48x32x5x96xbf16>, tensor<5x96x96xbf16>) outs(%arg3 : tensor<16x48x32x5x96xf32>) {
      ^bb0(%in: bf16, %in_0: bf16, %out: f32):
        %2 = arith.extf %in : bf16 to f32
        %3 = arith.extf %in_0 : bf16 to f32
        %4 = arith.mulf %2, %3 : f32
        %5 = arith.addf %out, %4 : f32
        linalg.yield %5 : f32
      } -> tensor<16x48x32x5x96xf32>
    } : (!transform.any_op) -> (!transform.any_value, !transform.any_value)
    %0 = transform.param.constant #iree_codegen.compilation_info<lowering_config = #iree_gpu.lowering_config<{mma_kind = #iree_gpu.mma_layout<MFMA_F32_16x16x16_BF16>, promote_operands = [0, 1], reduction = [0, 0, 0, 0, 0, 2], subgroup = [4, 1, 1, 1, 3, 0], subgroup_m_count = 1 : i64, subgroup_n_count = 2 : i64, workgroup = [4, 1, 16, 1, 96, 0]}>, translation_info = <pipeline = LLVMGPUTileAndFuse workgroup_size = [128, 1, 1] subgroup_size = 64, {gpu_pipeline_options = #iree_gpu.pipeline_options<prefetch_shared_memory = true>, llvm_func_attrs = {"amdgpu-waves-per-eu" = "2"}}>> -> !transform.any_param
    transform.yield %arg0, %0 : !transform.any_op, !transform.any_param
  }
  transform.named_sequence @"module-4767593926805822391_apply_op_config"(%arg0: !transform.any_op {transform.readonly}, %arg1: !transform.any_param {transform.readonly}) {
    transform.annotate %arg0 "compilation_info" = %arg1 : !transform.any_op, !transform.any_param
    transform.yield
  }
  transform.named_sequence @match_conv_2d_bfloat16_forward_128x24x48x480_nhwc_384x1x1x480_fhwc_nhwf_1x1s_0x0p_1x1d_1g$async_dispatch_0_matmul_like_147456x384x480_bf16xbf16xf32(%arg0: !transform.any_op {transform.readonly}) -> (!transform.any_op, !transform.any_param) {
    %inputs, %outputs = transform.iree.match.cast_compatible_dag_from_root %arg0 {
    ^bb0(%arg1: tensor<147456x480xbf16>, %arg2: tensor<384x480xbf16>, %arg3: tensor<147456x384xf32>):
      %1 = linalg.generic {indexing_maps = [affine_map<(d0, d1, d2) -> (d0, d2)>, affine_map<(d0, d1, d2) -> (d1, d2)>, affine_map<(d0, d1, d2) -> (d0, d1)>], iterator_types = ["parallel", "parallel", "reduction"]} ins(%arg1, %arg2 : tensor<147456x480xbf16>, tensor<384x480xbf16>) outs(%arg3 : tensor<147456x384xf32>) {
      ^bb0(%in: bf16, %in_0: bf16, %out: f32):
        %2 = arith.extf %in : bf16 to f32
        %3 = arith.extf %in_0 : bf16 to f32
        %4 = arith.mulf %2, %3 : f32
        %5 = arith.addf %out, %4 : f32
        linalg.yield %5 : f32
      } -> tensor<147456x384xf32>
    } : (!transform.any_op) -> (!transform.any_value, !transform.any_value)
    %0 = transform.param.constant #iree_codegen.compilation_info<lowering_config = #iree_gpu.lowering_config<{mma_kind = #iree_gpu.mma_layout<MFMA_F32_32x32x8_BF16>, promote_operands = [0, 1], reduction = [0, 0, 4], subgroup = [4, 3, 0], subgroup_m_count = 2 : i64, subgroup_n_count = 4 : i64, workgroup = [256, 384, 0]}>, translation_info = <pipeline = LLVMGPUTileAndFuse workgroup_size = [512, 1, 1] subgroup_size = 64, {gpu_pipeline_options = #iree_gpu.pipeline_options<prefetch_shared_memory = true>, llvm_func_attrs = {"amdgpu-waves-per-eu" = "2"}}>> -> !transform.any_param
    transform.yield %arg0, %0 : !transform.any_op, !transform.any_param
  }
  transform.named_sequence @"module-1608284571499770249_apply_op_config"(%arg0: !transform.any_op {transform.readonly}, %arg1: !transform.any_param {transform.readonly}) {
    transform.annotate %arg0 "compilation_info" = %arg1 : !transform.any_op, !transform.any_param
    transform.yield
  }
  transform.named_sequence @match_conv_3d_bfloat16_forward_b_16x2x48x32x288_ndhwc_288x3x1x1x96_fdhwc_ndhwf_1x1x1s_1x0x0p_1x1x1d_3g$async_dispatch_0_conv_16x2x48x32x3x96x3x96_bf16xbf16xf32(%arg0: !transform.any_op {transform.readonly}) -> (!transform.any_op, !transform.any_param) {
    %inputs, %outputs = transform.iree.match.cast_compatible_dag_from_root %arg0 {
    ^bb0(%arg1: tensor<16x4x48x32x3x96xbf16>, %arg2: tensor<3x96x3x96xbf16>, %arg3: tensor<16x2x48x32x3x96xf32>):
      %1 = linalg.generic {indexing_maps = [affine_map<(d0, d1, d2, d3, d4, d5, d6, d7) -> (d0, d1 + d6, d2, d3, d4, d7)>, affine_map<(d0, d1, d2, d3, d4, d5, d6, d7) -> (d4, d5, d6, d7)>, affine_map<(d0, d1, d2, d3, d4, d5, d6, d7) -> (d0, d1, d2, d3, d4, d5)>], iterator_types = ["parallel", "parallel", "parallel", "parallel", "parallel", "parallel", "reduction", "reduction"]} ins(%arg1, %arg2 : tensor<16x4x48x32x3x96xbf16>, tensor<3x96x3x96xbf16>) outs(%arg3 : tensor<16x2x48x32x3x96xf32>) {
      ^bb0(%in: bf16, %in_0: bf16, %out: f32):
        %2 = arith.extf %in : bf16 to f32
        %3 = arith.extf %in_0 : bf16 to f32
        %4 = arith.mulf %2, %3 : f32
        %5 = arith.addf %out, %4 : f32
        linalg.yield %5 : f32
      } -> tensor<16x2x48x32x3x96xf32>
    } : (!transform.any_op) -> (!transform.any_value, !transform.any_value)
    %0 = transform.param.constant #iree_codegen.compilation_info<lowering_config = #iree_gpu.lowering_config<{mma_kind = #iree_gpu.mma_layout<MFMA_F32_16x16x16_BF16>, promote_operands = [0, 1], reduction = [0, 0, 0, 0, 0, 0, 2], subgroup = [1, 1, 3, 2, 1, 2, 0], subgroup_m_count = 1 : i64, subgroup_n_count = 3 : i64, workgroup = [1, 1, 3, 32, 1, 96, 0]}>, translation_info = <pipeline = LLVMGPUTileAndFuse workgroup_size = [192, 1, 1] subgroup_size = 64, {gpu_pipeline_options = #iree_gpu.pipeline_options<prefetch_shared_memory = true, use_igemm_convolution = true>, llvm_func_attrs = {"amdgpu-waves-per-eu" = "2"}}>> -> !transform.any_param
    transform.yield %arg0, %0 : !transform.any_op, !transform.any_param
  }
  transform.named_sequence @"module-464855148765289941_apply_op_config"(%arg0: !transform.any_op {transform.readonly}, %arg1: !transform.any_param {transform.readonly}) {
    transform.annotate %arg0 "compilation_info" = %arg1 : !transform.any_op, !transform.any_param
    transform.yield
  }
  transform.named_sequence @match_conv_2d_bfloat16_forward_16x48x32x672_nhwc_576x1x1x672_fhwc_nhwf_1x1s_0x0p_1x1d_1g$async_dispatch_0_matmul_like_24576x576x672_bf16xbf16xf32(%arg0: !transform.any_op {transform.readonly}) -> (!transform.any_op, !transform.any_param) {
    %inputs, %outputs = transform.iree.match.cast_compatible_dag_from_root %arg0 {
    ^bb0(%arg1: tensor<24576x672xbf16>, %arg2: tensor<576x672xbf16>, %arg3: tensor<24576x576xf32>):
      %1 = linalg.generic {indexing_maps = [affine_map<(d0, d1, d2) -> (d0, d2)>, affine_map<(d0, d1, d2) -> (d1, d2)>, affine_map<(d0, d1, d2) -> (d0, d1)>], iterator_types = ["parallel", "parallel", "reduction"]} ins(%arg1, %arg2 : tensor<24576x672xbf16>, tensor<576x672xbf16>) outs(%arg3 : tensor<24576x576xf32>) {
      ^bb0(%in: bf16, %in_0: bf16, %out: f32):
        %2 = arith.extf %in : bf16 to f32
        %3 = arith.extf %in_0 : bf16 to f32
        %4 = arith.mulf %2, %3 : f32
        %5 = arith.addf %out, %4 : f32
        linalg.yield %5 : f32
      } -> tensor<24576x576xf32>
    } : (!transform.any_op) -> (!transform.any_value, !transform.any_value)
    %0 = transform.param.constant #iree_codegen.compilation_info<lowering_config = #iree_gpu.lowering_config<{mma_kind = #iree_gpu.mma_layout<MFMA_F32_16x16x16_BF16>, promote_operands = [0, 1], reduction = [0, 0, 2], subgroup = [2, 12, 0], subgroup_m_count = 4 : i64, subgroup_n_count = 1 : i64, workgroup = [128, 192, 0]}>, translation_info = <pipeline = LLVMGPUTileAndFuse workgroup_size = [256, 1, 1] subgroup_size = 64, {gpu_pipeline_options = #iree_gpu.pipeline_options<prefetch_shared_memory = true>, llvm_func_attrs = {"amdgpu-waves-per-eu" = "2"}}>> -> !transform.any_param
    transform.yield %arg0, %0 : !transform.any_op, !transform.any_param
  }
  transform.named_sequence @module4378881155291204668_apply_op_config(%arg0: !transform.any_op {transform.readonly}, %arg1: !transform.any_param {transform.readonly}) {
    transform.annotate %arg0 "compilation_info" = %arg1 : !transform.any_op, !transform.any_param
    transform.yield
  }
  transform.named_sequence @match_conv_2d_bfloat16_forward_16x96x64x96_nhwc_96x3x1x96_fhwc_nhwf_1x1s_1x0p_1x1d_1g$async_dispatch_0_conv_16x96x64x96x3x96_bf16xbf16xf32(%arg0: !transform.any_op {transform.readonly}) -> (!transform.any_op, !transform.any_param) {
    %inputs, %outputs = transform.iree.match.cast_compatible_dag_from_root %arg0 {
    ^bb0(%arg1: tensor<16x98x64x96xbf16>, %arg2: tensor<96x3x96xbf16>, %arg3: tensor<16x96x64x96xf32>):
      %1 = linalg.generic {indexing_maps = [affine_map<(d0, d1, d2, d3, d4, d5) -> (d0, d1 + d4, d2, d5)>, affine_map<(d0, d1, d2, d3, d4, d5) -> (d3, d4, d5)>, affine_map<(d0, d1, d2, d3, d4, d5) -> (d0, d1, d2, d3)>], iterator_types = ["parallel", "parallel", "parallel", "parallel", "reduction", "reduction"]} ins(%arg1, %arg2 : tensor<16x98x64x96xbf16>, tensor<96x3x96xbf16>) outs(%arg3 : tensor<16x96x64x96xf32>) {
      ^bb0(%in: bf16, %in_0: bf16, %out: f32):
        %2 = arith.extf %in : bf16 to f32
        %3 = arith.extf %in_0 : bf16 to f32
        %4 = arith.mulf %2, %3 : f32
        %5 = arith.addf %out, %4 : f32
        linalg.yield %5 : f32
      } -> tensor<16x96x64x96xf32>
    } : (!transform.any_op) -> (!transform.any_value, !transform.any_value)
    %0 = transform.param.constant #iree_codegen.compilation_info<lowering_config = #iree_gpu.lowering_config<{mma_kind = #iree_gpu.mma_layout<MFMA_F32_16x16x16_BF16>, promote_operands = [0, 1], reduction = [0, 0, 0, 0, 2], subgroup = [2, 3, 1, 2, 0], subgroup_m_count = 2 : i64, subgroup_n_count = 3 : i64, workgroup = [2, 6, 16, 96, 0]}>, translation_info = <pipeline = LLVMGPUTileAndFuse workgroup_size = [384, 1, 1] subgroup_size = 64, {gpu_pipeline_options = #iree_gpu.pipeline_options<prefetch_shared_memory = true, use_igemm_convolution = true>, llvm_func_attrs = {"amdgpu-waves-per-eu" = "2"}}>> -> !transform.any_param
    transform.yield %arg0, %0 : !transform.any_op, !transform.any_param
  }
  transform.named_sequence @"module-763959733402495440_apply_op_config"(%arg0: !transform.any_op {transform.readonly}, %arg1: !transform.any_param {transform.readonly}) {
    transform.annotate %arg0 "compilation_info" = %arg1 : !transform.any_op, !transform.any_param
    transform.yield
  }
  transform.named_sequence @match_conv_2d_bfloat16_forward_16x96x64x48_nhwc_48x3x3x48_fhwc_nhwf_1x1s_1x1p_1x1d_1g$async_dispatch_0_conv_16x96x64x48x3x3x48_bf16xbf16xf32(%arg0: !transform.any_op {transform.readonly}) -> (!transform.any_op, !transform.any_param) {
    %inputs, %outputs = transform.iree.match.cast_compatible_dag_from_root %arg0 {
    ^bb0(%arg1: tensor<16x98x66x48xbf16>, %arg2: tensor<48x3x3x48xbf16>, %arg3: tensor<16x96x64x48xf32>):
      %1 = linalg.generic {indexing_maps = [affine_map<(d0, d1, d2, d3, d4, d5, d6) -> (d0, d1 + d4, d2 + d5, d6)>, affine_map<(d0, d1, d2, d3, d4, d5, d6) -> (d3, d4, d5, d6)>, affine_map<(d0, d1, d2, d3, d4, d5, d6) -> (d0, d1, d2, d3)>], iterator_types = ["parallel", "parallel", "parallel", "parallel", "reduction", "reduction", "reduction"]} ins(%arg1, %arg2 : tensor<16x98x66x48xbf16>, tensor<48x3x3x48xbf16>) outs(%arg3 : tensor<16x96x64x48xf32>) {
      ^bb0(%in: bf16, %in_0: bf16, %out: f32):
        %2 = arith.extf %in : bf16 to f32
        %3 = arith.extf %in_0 : bf16 to f32
        %4 = arith.mulf %2, %3 : f32
        %5 = arith.addf %out, %4 : f32
        linalg.yield %5 : f32
      } -> tensor<16x96x64x48xf32>
    } : (!transform.any_op) -> (!transform.any_value, !transform.any_value)
    %0 = transform.param.constant #iree_codegen.compilation_info<lowering_config = #iree_gpu.lowering_config<{mma_kind = #iree_gpu.mma_layout<MFMA_F32_32x32x8_BF16>, padding = [1, 1, 64, 64, 16], promote_operands = [0, 1, 2], reduction = [0, 0, 0, 0, 2], subgroup = [1, 1, 1, 2, 0], subgroup_m_count = 2 : i64, subgroup_n_count = 1 : i64, workgroup = [1, 1, 64, 64, 0]}>, translation_info = <pipeline = LLVMGPUTileAndFuse workgroup_size = [128, 1, 1] subgroup_size = 64, {gpu_pipeline_options = #iree_gpu.pipeline_options<prefetch_shared_memory = true, use_igemm_convolution = true>, llvm_func_attrs = {"amdgpu-waves-per-eu" = "2"}}>> -> !transform.any_param
    transform.yield %arg0, %0 : !transform.any_op, !transform.any_param
  }
  transform.named_sequence @module2066699225626929295_apply_op_config(%arg0: !transform.any_op {transform.readonly}, %arg1: !transform.any_param {transform.readonly}) {
    transform.annotate %arg0 "compilation_info" = %arg1 : !transform.any_op, !transform.any_param
    transform.yield
  }
  transform.named_sequence @match_conv_2d_bfloat16_forward_16x96x64x192_nhwc_96x1x1x192_fhwc_nhwf_1x1s_0x0p_1x1d_1g$async_dispatch_0_matmul_like_98304x96x192_bf16xbf16xf32(%arg0: !transform.any_op {transform.readonly}) -> (!transform.any_op, !transform.any_param) {
    %inputs, %outputs = transform.iree.match.cast_compatible_dag_from_root %arg0 {
    ^bb0(%arg1: tensor<98304x192xbf16>, %arg2: tensor<96x192xbf16>, %arg3: tensor<98304x96xf32>):
      %1 = linalg.generic {indexing_maps = [affine_map<(d0, d1, d2) -> (d0, d2)>, affine_map<(d0, d1, d2) -> (d1, d2)>, affine_map<(d0, d1, d2) -> (d0, d1)>], iterator_types = ["parallel", "parallel", "reduction"]} ins(%arg1, %arg2 : tensor<98304x192xbf16>, tensor<96x192xbf16>) outs(%arg3 : tensor<98304x96xf32>) {
      ^bb0(%in: bf16, %in_0: bf16, %out: f32):
        %2 = arith.extf %in : bf16 to f32
        %3 = arith.extf %in_0 : bf16 to f32
        %4 = arith.mulf %2, %3 : f32
        %5 = arith.addf %out, %4 : f32
        linalg.yield %5 : f32
      } -> tensor<98304x96xf32>
    } : (!transform.any_op) -> (!transform.any_value, !transform.any_value)
    %0 = transform.param.constant #iree_codegen.compilation_info<lowering_config = #iree_gpu.lowering_config<{mma_kind = #iree_gpu.mma_layout<MFMA_F32_16x16x16_BF16>, promote_operands = [0, 1], reduction = [0, 0, 2], subgroup = [2, 6, 0], subgroup_m_count = 6 : i64, subgroup_n_count = 1 : i64, workgroup = [192, 96, 0]}>, translation_info = <pipeline = LLVMGPUTileAndFuse workgroup_size = [384, 1, 1] subgroup_size = 64, {gpu_pipeline_options = #iree_gpu.pipeline_options<prefetch_shared_memory = true>, llvm_func_attrs = {"amdgpu-waves-per-eu" = "2"}}>> -> !transform.any_param
    transform.yield %arg0, %0 : !transform.any_op, !transform.any_param
  }
  transform.named_sequence @module7350505846474122665_apply_op_config(%arg0: !transform.any_op {transform.readonly}, %arg1: !transform.any_param {transform.readonly}) {
    transform.annotate %arg0 "compilation_info" = %arg1 : !transform.any_op, !transform.any_param
    transform.yield
  }
  transform.named_sequence @match_conv_2d_bfloat16_forward_16x96x64x48_nhwc_48x3x3x48_fhwc_nhwf_1x1s_4x4p_4x4d_1g$async_dispatch_0_conv_16x96x64x48x3x3x48_bf16xbf16xf32(%arg0: !transform.any_op {transform.readonly}) -> (!transform.any_op, !transform.any_param) {
    %inputs, %outputs = transform.iree.match.cast_compatible_dag_from_root %arg0 {
    ^bb0(%arg1: tensor<16x104x72x48xbf16>, %arg2: tensor<48x3x3x48xbf16>, %arg3: tensor<16x96x64x48xf32>):
      %1 = linalg.generic {indexing_maps = [affine_map<(d0, d1, d2, d3, d4, d5, d6) -> (d0, d1 + d4 * 4, d2 + d5 * 4, d6)>, affine_map<(d0, d1, d2, d3, d4, d5, d6) -> (d3, d4, d5, d6)>, affine_map<(d0, d1, d2, d3, d4, d5, d6) -> (d0, d1, d2, d3)>], iterator_types = ["parallel", "parallel", "parallel", "parallel", "reduction", "reduction", "reduction"]} ins(%arg1, %arg2 : tensor<16x104x72x48xbf16>, tensor<48x3x3x48xbf16>) outs(%arg3 : tensor<16x96x64x48xf32>) {
      ^bb0(%in: bf16, %in_0: bf16, %out: f32):
        %2 = arith.extf %in : bf16 to f32
        %3 = arith.extf %in_0 : bf16 to f32
        %4 = arith.mulf %2, %3 : f32
        %5 = arith.addf %out, %4 : f32
        linalg.yield %5 : f32
      } -> tensor<16x96x64x48xf32>
    } : (!transform.any_op) -> (!transform.any_value, !transform.any_value)
    %0 = transform.param.constant #iree_codegen.compilation_info<lowering_config = #iree_gpu.lowering_config<{mma_kind = #iree_gpu.mma_layout<MFMA_F32_32x32x8_BF16>, padding = [1, 1, 64, 64, 48], promote_operands = [0, 1, 2], reduction = [0, 0, 0, 0, 6], subgroup = [1, 1, 2, 1, 0], subgroup_m_count = 1 : i64, subgroup_n_count = 2 : i64, workgroup = [1, 1, 64, 64, 0]}>, translation_info = <pipeline = LLVMGPUTileAndFuse workgroup_size = [128, 1, 1] subgroup_size = 64, {gpu_pipeline_options = #iree_gpu.pipeline_options<prefetch_shared_memory = true, use_igemm_convolution = true>, llvm_func_attrs = {"amdgpu-waves-per-eu" = "2"}}>> -> !transform.any_param
    transform.yield %arg0, %0 : !transform.any_op, !transform.any_param
  }
  transform.named_sequence @"module-7530347551705388041_apply_op_config"(%arg0: !transform.any_op {transform.readonly}, %arg1: !transform.any_param {transform.readonly}) {
    transform.annotate %arg0 "compilation_info" = %arg1 : !transform.any_op, !transform.any_param
    transform.yield
  }
  transform.named_sequence @match_conv_3d_bfloat16_forward_b_16x4x48x32x288_ndhwc_288x3x1x1x96_fdhwc_ndhwf_1x1x1s_1x0x0p_1x1x1d_3g$async_dispatch_0_conv_16x4x48x32x3x96x3x96_bf16xbf16xf32(%arg0: !transform.any_op {transform.readonly}) -> (!transform.any_op, !transform.any_param) {
    %inputs, %outputs = transform.iree.match.cast_compatible_dag_from_root %arg0 {
    ^bb0(%arg1: tensor<16x6x48x32x3x96xbf16>, %arg2: tensor<3x96x3x96xbf16>, %arg3: tensor<16x4x48x32x3x96xf32>):
      %1 = linalg.generic {indexing_maps = [affine_map<(d0, d1, d2, d3, d4, d5, d6, d7) -> (d0, d1 + d6, d2, d3, d4, d7)>, affine_map<(d0, d1, d2, d3, d4, d5, d6, d7) -> (d4, d5, d6, d7)>, affine_map<(d0, d1, d2, d3, d4, d5, d6, d7) -> (d0, d1, d2, d3, d4, d5)>], iterator_types = ["parallel", "parallel", "parallel", "parallel", "parallel", "parallel", "reduction", "reduction"]} ins(%arg1, %arg2 : tensor<16x6x48x32x3x96xbf16>, tensor<3x96x3x96xbf16>) outs(%arg3 : tensor<16x4x48x32x3x96xf32>) {
      ^bb0(%in: bf16, %in_0: bf16, %out: f32):
        %2 = arith.extf %in : bf16 to f32
        %3 = arith.extf %in_0 : bf16 to f32
        %4 = arith.mulf %2, %3 : f32
        %5 = arith.addf %out, %4 : f32
        linalg.yield %5 : f32
      } -> tensor<16x4x48x32x3x96xf32>
    } : (!transform.any_op) -> (!transform.any_value, !transform.any_value)
    %0 = transform.param.constant #iree_codegen.compilation_info<lowering_config = #iree_gpu.lowering_config<{mma_kind = #iree_gpu.mma_layout<MFMA_F32_16x16x16_BF16>, promote_operands = [0, 1], reduction = [0, 0, 0, 0, 0, 0, 2], subgroup = [1, 1, 2, 2, 1, 6, 0], subgroup_m_count = 3 : i64, subgroup_n_count = 1 : i64, workgroup = [1, 1, 6, 32, 1, 96, 0]}>, translation_info = <pipeline = LLVMGPUTileAndFuse workgroup_size = [192, 1, 1] subgroup_size = 64, {gpu_pipeline_options = #iree_gpu.pipeline_options<prefetch_shared_memory = true, use_igemm_convolution = true>, llvm_func_attrs = {"amdgpu-waves-per-eu" = "2"}}>> -> !transform.any_param
    transform.yield %arg0, %0 : !transform.any_op, !transform.any_param
  }
  transform.named_sequence @"module-1970581355946039598_apply_op_config"(%arg0: !transform.any_op {transform.readonly}, %arg1: !transform.any_param {transform.readonly}) {
    transform.annotate %arg0 "compilation_info" = %arg1 : !transform.any_op, !transform.any_param
    transform.yield
  }
  transform.named_sequence @match_conv_3d_bfloat16_forward_b_16x2x48x32x288_ndhwc_288x1x3x3x96_fdhwc_ndhwf_1x1x1s_0x1x1p_1x1x1d_3g$async_dispatch_0_conv_16x2x48x32x3x96x3x3x96_bf16xbf16xf32(%arg0: !transform.any_op {transform.readonly}) -> (!transform.any_op, !transform.any_param) {
    %inputs, %outputs = transform.iree.match.cast_compatible_dag_from_root %arg0 {
    ^bb0(%arg1: tensor<16x2x50x34x3x96xbf16>, %arg2: tensor<3x96x3x3x96xbf16>, %arg3: tensor<16x2x48x32x3x96xf32>):
      %1 = linalg.generic {indexing_maps = [affine_map<(d0, d1, d2, d3, d4, d5, d6, d7, d8) -> (d0, d1, d2 + d6, d3 + d7, d4, d8)>, affine_map<(d0, d1, d2, d3, d4, d5, d6, d7, d8) -> (d4, d5, d6, d7, d8)>, affine_map<(d0, d1, d2, d3, d4, d5, d6, d7, d8) -> (d0, d1, d2, d3, d4, d5)>], iterator_types = ["parallel", "parallel", "parallel", "parallel", "parallel", "parallel", "reduction", "reduction", "reduction"]} ins(%arg1, %arg2 : tensor<16x2x50x34x3x96xbf16>, tensor<3x96x3x3x96xbf16>) outs(%arg3 : tensor<16x2x48x32x3x96xf32>) {
      ^bb0(%in: bf16, %in_0: bf16, %out: f32):
        %2 = arith.extf %in : bf16 to f32
        %3 = arith.extf %in_0 : bf16 to f32
        %4 = arith.mulf %2, %3 : f32
        %5 = arith.addf %out, %4 : f32
        linalg.yield %5 : f32
      } -> tensor<16x2x48x32x3x96xf32>
    } : (!transform.any_op) -> (!transform.any_value, !transform.any_value)
    %0 = transform.param.constant #iree_codegen.compilation_info<lowering_config = #iree_gpu.lowering_config<{mma_kind = #iree_gpu.mma_layout<MFMA_F32_16x16x16_BF16>, promote_operands = [0, 1], reduction = [0, 0, 0, 0, 0, 0, 2], subgroup = [4, 1, 2, 1, 1, 3, 0], subgroup_m_count = 1 : i64, subgroup_n_count = 2 : i64, workgroup = [4, 1, 2, 16, 1, 96, 0]}>, translation_info = <pipeline = LLVMGPUTileAndFuse workgroup_size = [128, 1, 1] subgroup_size = 64, {gpu_pipeline_options = #iree_gpu.pipeline_options<prefetch_shared_memory = true, use_igemm_convolution = true>, llvm_func_attrs = {"amdgpu-waves-per-eu" = "2"}}>> -> !transform.any_param
    transform.yield %arg0, %0 : !transform.any_op, !transform.any_param
  }
  transform.named_sequence @module3276315160131382713_apply_op_config(%arg0: !transform.any_op {transform.readonly}, %arg1: !transform.any_param {transform.readonly}) {
    transform.annotate %arg0 "compilation_info" = %arg1 : !transform.any_op, !transform.any_param
    transform.yield
  }
  transform.named_sequence @match_conv_2d_bfloat16_forward_16x96x64x48_nhwc_48x3x3x48_fhwc_nhwf_1x1s_2x2p_2x2d_1g$async_dispatch_0_conv_16x96x64x48x3x3x48_bf16xbf16xf32(%arg0: !transform.any_op {transform.readonly}) -> (!transform.any_op, !transform.any_param) {
    %inputs, %outputs = transform.iree.match.cast_compatible_dag_from_root %arg0 {
    ^bb0(%arg1: tensor<16x100x68x48xbf16>, %arg2: tensor<48x3x3x48xbf16>, %arg3: tensor<16x96x64x48xf32>):
      %1 = linalg.generic {indexing_maps = [affine_map<(d0, d1, d2, d3, d4, d5, d6) -> (d0, d1 + d4 * 2, d2 + d5 * 2, d6)>, affine_map<(d0, d1, d2, d3, d4, d5, d6) -> (d3, d4, d5, d6)>, affine_map<(d0, d1, d2, d3, d4, d5, d6) -> (d0, d1, d2, d3)>], iterator_types = ["parallel", "parallel", "parallel", "parallel", "reduction", "reduction", "reduction"]} ins(%arg1, %arg2 : tensor<16x100x68x48xbf16>, tensor<48x3x3x48xbf16>) outs(%arg3 : tensor<16x96x64x48xf32>) {
      ^bb0(%in: bf16, %in_0: bf16, %out: f32):
        %2 = arith.extf %in : bf16 to f32
        %3 = arith.extf %in_0 : bf16 to f32
        %4 = arith.mulf %2, %3 : f32
        %5 = arith.addf %out, %4 : f32
        linalg.yield %5 : f32
      } -> tensor<16x96x64x48xf32>
    } : (!transform.any_op) -> (!transform.any_value, !transform.any_value)
    %0 = transform.param.constant #iree_codegen.compilation_info<lowering_config = #iree_gpu.lowering_config<{mma_kind = #iree_gpu.mma_layout<MFMA_F32_32x32x8_BF16>, padding = [1, 2, 32, 64, 16], promote_operands = [0, 1, 2], reduction = [0, 0, 0, 0, 2], subgroup = [1, 1, 1, 2, 0], subgroup_m_count = 2 : i64, subgroup_n_count = 1 : i64, workgroup = [1, 2, 32, 64, 0]}>, translation_info = <pipeline = LLVMGPUTileAndFuse workgroup_size = [128, 1, 1] subgroup_size = 64, {gpu_pipeline_options = #iree_gpu.pipeline_options<prefetch_shared_memory = true, use_igemm_convolution = true>, llvm_func_attrs = {"amdgpu-waves-per-eu" = "2"}}>> -> !transform.any_param
    transform.yield %arg0, %0 : !transform.any_op, !transform.any_param
  }
  transform.named_sequence @"module-3100570618954513192_apply_op_config"(%arg0: !transform.any_op {transform.readonly}, %arg1: !transform.any_param {transform.readonly}) {
    transform.annotate %arg0 "compilation_info" = %arg1 : !transform.any_op, !transform.any_param
    transform.yield
  }
  transform.named_sequence @match_conv_3d_bfloat16_forward_16x2x48x32x288_ndhwc_288x2x1x1x288_fdhwc_ndhwf_2x1x1s_0x0x0p_1x1x1d_1g$async_dispatch_0_matmul_like_16x48x32x288x2x288_bf16xbf16xf32(%arg0: !transform.any_op {transform.readonly}) -> (!transform.any_op, !transform.any_param) {
    %inputs, %outputs = transform.iree.match.cast_compatible_dag_from_root %arg0 {
    ^bb0(%arg1: tensor<16x2x48x32x288xbf16>, %arg2: tensor<288x2x288xbf16>, %arg3: tensor<16x48x32x288xf32>):
      %1 = linalg.generic {indexing_maps = [affine_map<(d0, d1, d2, d3, d4, d5) -> (d0, d4, d1, d2, d5)>, affine_map<(d0, d1, d2, d3, d4, d5) -> (d3, d4, d5)>, affine_map<(d0, d1, d2, d3, d4, d5) -> (d0, d1, d2, d3)>], iterator_types = ["parallel", "parallel", "parallel", "parallel", "reduction", "reduction"]} ins(%arg1, %arg2 : tensor<16x2x48x32x288xbf16>, tensor<288x2x288xbf16>) outs(%arg3 : tensor<16x48x32x288xf32>) {
      ^bb0(%in: bf16, %in_0: bf16, %out: f32):
        %2 = arith.extf %in : bf16 to f32
        %3 = arith.extf %in_0 : bf16 to f32
        %4 = arith.mulf %2, %3 : f32
        %5 = arith.addf %out, %4 : f32
        linalg.yield %5 : f32
      } -> tensor<16x48x32x288xf32>
    } : (!transform.any_op) -> (!transform.any_value, !transform.any_value)
    %0 = transform.param.constant #iree_codegen.compilation_info<lowering_config = #iree_gpu.lowering_config<{mma_kind = #iree_gpu.mma_layout<MFMA_F32_16x16x16_BF16>, promote_operands = [0, 1], reduction = [0, 0, 0, 0, 2, 2], subgroup = [1, 1, 2, 6, 0, 0], subgroup_m_count = 4 : i64, subgroup_n_count = 1 : i64, workgroup = [4, 1, 32, 96, 0, 0]}>, translation_info = <pipeline = LLVMGPUTileAndFuse workgroup_size = [256, 1, 1] subgroup_size = 64, {gpu_pipeline_options = #iree_gpu.pipeline_options<prefetch_shared_memory = true>, llvm_func_attrs = {"amdgpu-waves-per-eu" = "2"}}>> -> !transform.any_param
    transform.yield %arg0, %0 : !transform.any_op, !transform.any_param
  }
  transform.named_sequence @"module-5016717600198604863_apply_op_config"(%arg0: !transform.any_op {transform.readonly}, %arg1: !transform.any_param {transform.readonly}) {
    transform.annotate %arg0 "compilation_info" = %arg1 : !transform.any_op, !transform.any_param
    transform.yield
  }
  transform.named_sequence @match_conv_2d_bfloat16_forward_16x96x64x96_nhwc_96x3x3x96_fhwc_nhwf_1x1s_1x1p_1x1d_1g$async_dispatch_0_conv_16x96x64x96x3x3x96_bf16xbf16xf32(%arg0: !transform.any_op {transform.readonly}) -> (!transform.any_op, !transform.any_param) {
    %inputs, %outputs = transform.iree.match.cast_compatible_dag_from_root %arg0 {
    ^bb0(%arg1: tensor<16x98x66x96xbf16>, %arg2: tensor<96x3x3x96xbf16>, %arg3: tensor<16x96x64x96xf32>):
      %1 = linalg.generic {indexing_maps = [affine_map<(d0, d1, d2, d3, d4, d5, d6) -> (d0, d1 + d4, d2 + d5, d6)>, affine_map<(d0, d1, d2, d3, d4, d5, d6) -> (d3, d4, d5, d6)>, affine_map<(d0, d1, d2, d3, d4, d5, d6) -> (d0, d1, d2, d3)>], iterator_types = ["parallel", "parallel", "parallel", "parallel", "reduction", "reduction", "reduction"]} ins(%arg1, %arg2 : tensor<16x98x66x96xbf16>, tensor<96x3x3x96xbf16>) outs(%arg3 : tensor<16x96x64x96xf32>) {
      ^bb0(%in: bf16, %in_0: bf16, %out: f32):
        %2 = arith.extf %in : bf16 to f32
        %3 = arith.extf %in_0 : bf16 to f32
        %4 = arith.mulf %2, %3 : f32
        %5 = arith.addf %out, %4 : f32
        linalg.yield %5 : f32
      } -> tensor<16x96x64x96xf32>
    } : (!transform.any_op) -> (!transform.any_value, !transform.any_value)
    %0 = transform.param.constant #iree_codegen.compilation_info<lowering_config = #iree_gpu.lowering_config<{mma_kind = #iree_gpu.mma_layout<MFMA_F32_32x32x8_BF16>, promote_operands = [0, 1], reduction = [0, 0, 0, 0, 4], subgroup = [1, 3, 1, 1, 0], subgroup_m_count = 2 : i64, subgroup_n_count = 3 : i64, workgroup = [1, 6, 32, 96, 0]}>, translation_info = <pipeline = LLVMGPUTileAndFuse workgroup_size = [384, 1, 1] subgroup_size = 64, {gpu_pipeline_options = #iree_gpu.pipeline_options<prefetch_shared_memory = true, use_igemm_convolution = true>, llvm_func_attrs = {"amdgpu-waves-per-eu" = "2"}}>> -> !transform.any_param
    transform.yield %arg0, %0 : !transform.any_op, !transform.any_param
  }
  transform.named_sequence @module4561946264403035130_apply_op_config(%arg0: !transform.any_op {transform.readonly}, %arg1: !transform.any_param {transform.readonly}) {
    transform.annotate %arg0 "compilation_info" = %arg1 : !transform.any_op, !transform.any_param
    transform.yield
  }
  transform.named_sequence @match_conv_2d_bfloat16_forward_128x24x48x384_nhwc_384x3x1x128_fhwc_nhwf_1x1s_1x0p_1x1d_3g$async_dispatch_0_conv_128x24x48x3x128x3x128_bf16xbf16xf32(%arg0: !transform.any_op {transform.readonly}) -> (!transform.any_op, !transform.any_param) {
    %inputs, %outputs = transform.iree.match.cast_compatible_dag_from_root %arg0 {
    ^bb0(%arg1: tensor<128x26x48x3x128xbf16>, %arg2: tensor<3x128x3x128xbf16>, %arg3: tensor<128x24x48x3x128xf32>):
      %1 = linalg.generic {indexing_maps = [affine_map<(d0, d1, d2, d3, d4, d5, d6) -> (d0, d1 + d5, d2, d3, d6)>, affine_map<(d0, d1, d2, d3, d4, d5, d6) -> (d3, d4, d5, d6)>, affine_map<(d0, d1, d2, d3, d4, d5, d6) -> (d0, d1, d2, d3, d4)>], iterator_types = ["parallel", "parallel", "parallel", "parallel", "parallel", "reduction", "reduction"]} ins(%arg1, %arg2 : tensor<128x26x48x3x128xbf16>, tensor<3x128x3x128xbf16>) outs(%arg3 : tensor<128x24x48x3x128xf32>) {
      ^bb0(%in: bf16, %in_0: bf16, %out: f32):
        %2 = arith.extf %in : bf16 to f32
        %3 = arith.extf %in_0 : bf16 to f32
        %4 = arith.mulf %2, %3 : f32
        %5 = arith.addf %out, %4 : f32
        linalg.yield %5 : f32
      } -> tensor<128x24x48x3x128xf32>
    } : (!transform.any_op) -> (!transform.any_value, !transform.any_value)
    %0 = transform.param.constant #iree_codegen.compilation_info<lowering_config = #iree_gpu.lowering_config<{mma_kind = #iree_gpu.mma_layout<MFMA_F32_16x16x16_BF16>, promote_operands = [0, 1], reduction = [0, 0, 0, 0, 0, 4], subgroup = [1, 3, 1, 1, 4, 0], subgroup_m_count = 2 : i64, subgroup_n_count = 2 : i64, workgroup = [2, 3, 16, 1, 128, 0]}>, translation_info = <pipeline = LLVMGPUTileAndFuse workgroup_size = [256, 1, 1] subgroup_size = 64, {gpu_pipeline_options = #iree_gpu.pipeline_options<prefetch_shared_memory = true, use_igemm_convolution = true>, llvm_func_attrs = {"amdgpu-waves-per-eu" = "2"}}>> -> !transform.any_param
    transform.yield %arg0, %0 : !transform.any_op, !transform.any_param
  }
  transform.named_sequence @"module-6425628932703912647_apply_op_config"(%arg0: !transform.any_op {transform.readonly}, %arg1: !transform.any_param {transform.readonly}) {
    transform.annotate %arg0 "compilation_info" = %arg1 : !transform.any_op, !transform.any_param
    transform.yield
  }
  transform.named_sequence @match_conv_3d_bfloat16_forward_b_16x8x48x32x288_ndhwc_288x3x1x1x96_fdhwc_ndhwf_1x1x1s_1x0x0p_1x1x1d_3g$async_dispatch_0_conv_16x8x48x32x3x96x3x96_bf16xbf16xf32(%arg0: !transform.any_op {transform.readonly}) -> (!transform.any_op, !transform.any_param) {
    %inputs, %outputs = transform.iree.match.cast_compatible_dag_from_root %arg0 {
    ^bb0(%arg1: tensor<16x10x48x32x3x96xbf16>, %arg2: tensor<3x96x3x96xbf16>, %arg3: tensor<16x8x48x32x3x96xf32>):
      %1 = linalg.generic {indexing_maps = [affine_map<(d0, d1, d2, d3, d4, d5, d6, d7) -> (d0, d1 + d6, d2, d3, d4, d7)>, affine_map<(d0, d1, d2, d3, d4, d5, d6, d7) -> (d4, d5, d6, d7)>, affine_map<(d0, d1, d2, d3, d4, d5, d6, d7) -> (d0, d1, d2, d3, d4, d5)>], iterator_types = ["parallel", "parallel", "parallel", "parallel", "parallel", "parallel", "reduction", "reduction"]} ins(%arg1, %arg2 : tensor<16x10x48x32x3x96xbf16>, tensor<3x96x3x96xbf16>) outs(%arg3 : tensor<16x8x48x32x3x96xf32>) {
      ^bb0(%in: bf16, %in_0: bf16, %out: f32):
        %2 = arith.extf %in : bf16 to f32
        %3 = arith.extf %in_0 : bf16 to f32
        %4 = arith.mulf %2, %3 : f32
        %5 = arith.addf %out, %4 : f32
        linalg.yield %5 : f32
      } -> tensor<16x8x48x32x3x96xf32>
    } : (!transform.any_op) -> (!transform.any_value, !transform.any_value)
    %0 = transform.param.constant #iree_codegen.compilation_info<lowering_config = #iree_gpu.lowering_config<{mma_kind = #iree_gpu.mma_layout<MFMA_F32_32x32x8_BF16>, promote_operands = [0, 1], reduction = [0, 0, 0, 0, 0, 0, 4], subgroup = [1, 1, 1, 1, 1, 3, 0], subgroup_m_count = 6 : i64, subgroup_n_count = 1 : i64, workgroup = [1, 1, 6, 32, 1, 96, 0]}>, translation_info = <pipeline = LLVMGPUTileAndFuse workgroup_size = [384, 1, 1] subgroup_size = 64, {gpu_pipeline_options = #iree_gpu.pipeline_options<prefetch_shared_memory = true, use_igemm_convolution = true>, llvm_func_attrs = {"amdgpu-waves-per-eu" = "2"}}>> -> !transform.any_param
    transform.yield %arg0, %0 : !transform.any_op, !transform.any_param
  }
  transform.named_sequence @module6909153255479619441_apply_op_config(%arg0: !transform.any_op {transform.readonly}, %arg1: !transform.any_param {transform.readonly}) {
    transform.annotate %arg0 "compilation_info" = %arg1 : !transform.any_op, !transform.any_param
    transform.yield
  }
  transform.named_sequence @match_conv_3d_bfloat16_forward_16x2x48x32x288_ndhwc_288x3x1x1x96_fdhwc_ndhwf_1x1x1s_1x0x0p_1x1x1d_3g$async_dispatch_0_conv_16x2x48x32x3x96x3x96_bf16xbf16xf32(%arg0: !transform.any_op {transform.readonly}) -> (!transform.any_op, !transform.any_param) {
    %inputs, %outputs = transform.iree.match.cast_compatible_dag_from_root %arg0 {
    ^bb0(%arg1: tensor<16x4x48x32x3x96xbf16>, %arg2: tensor<3x96x3x96xbf16>, %arg3: tensor<16x2x48x32x3x96xf32>):
      %1 = linalg.generic {indexing_maps = [affine_map<(d0, d1, d2, d3, d4, d5, d6, d7) -> (d0, d1 + d6, d2, d3, d4, d7)>, affine_map<(d0, d1, d2, d3, d4, d5, d6, d7) -> (d4, d5, d6, d7)>, affine_map<(d0, d1, d2, d3, d4, d5, d6, d7) -> (d0, d1, d2, d3, d4, d5)>], iterator_types = ["parallel", "parallel", "parallel", "parallel", "parallel", "parallel", "reduction", "reduction"]} ins(%arg1, %arg2 : tensor<16x4x48x32x3x96xbf16>, tensor<3x96x3x96xbf16>) outs(%arg3 : tensor<16x2x48x32x3x96xf32>) {
      ^bb0(%in: bf16, %in_0: bf16, %out: f32):
        %2 = arith.extf %in : bf16 to f32
        %3 = arith.extf %in_0 : bf16 to f32
        %4 = arith.mulf %2, %3 : f32
        %5 = arith.addf %out, %4 : f32
        linalg.yield %5 : f32
      } -> tensor<16x2x48x32x3x96xf32>
    } : (!transform.any_op) -> (!transform.any_value, !transform.any_value)
    %0 = transform.param.constant #iree_codegen.compilation_info<lowering_config = #iree_gpu.lowering_config<{mma_kind = #iree_gpu.mma_layout<MFMA_F32_16x16x16_BF16>, promote_operands = [0, 1], reduction = [0, 0, 0, 0, 0, 0, 2], subgroup = [4, 1, 1, 2, 1, 3, 0], subgroup_m_count = 1 : i64, subgroup_n_count = 2 : i64, workgroup = [4, 1, 1, 32, 1, 96, 0]}>, translation_info = <pipeline = LLVMGPUTileAndFuse workgroup_size = [128, 1, 1] subgroup_size = 64, {gpu_pipeline_options = #iree_gpu.pipeline_options<prefetch_shared_memory = true, use_igemm_convolution = true>, llvm_func_attrs = {"amdgpu-waves-per-eu" = "2"}}>> -> !transform.any_param
    transform.yield %arg0, %0 : !transform.any_op, !transform.any_param
  }
  transform.named_sequence @module397248974270796247_apply_op_config(%arg0: !transform.any_op {transform.readonly}, %arg1: !transform.any_param {transform.readonly}) {
    transform.annotate %arg0 "compilation_info" = %arg1 : !transform.any_op, !transform.any_param
    transform.yield
  }
  transform.named_sequence @match_conv_3d_bfloat16_forward_b_16x4x48x32x288_ndhwc_288x1x3x3x96_fdhwc_ndhwf_1x1x1s_0x1x1p_1x1x1d_3g$async_dispatch_0_conv_16x4x48x32x3x96x3x3x96_bf16xbf16xf32(%arg0: !transform.any_op {transform.readonly}) -> (!transform.any_op, !transform.any_param) {
    %inputs, %outputs = transform.iree.match.cast_compatible_dag_from_root %arg0 {
    ^bb0(%arg1: tensor<16x4x50x34x3x96xbf16>, %arg2: tensor<3x96x3x3x96xbf16>, %arg3: tensor<16x4x48x32x3x96xf32>):
      %1 = linalg.generic {indexing_maps = [affine_map<(d0, d1, d2, d3, d4, d5, d6, d7, d8) -> (d0, d1, d2 + d6, d3 + d7, d4, d8)>, affine_map<(d0, d1, d2, d3, d4, d5, d6, d7, d8) -> (d4, d5, d6, d7, d8)>, affine_map<(d0, d1, d2, d3, d4, d5, d6, d7, d8) -> (d0, d1, d2, d3, d4, d5)>], iterator_types = ["parallel", "parallel", "parallel", "parallel", "parallel", "parallel", "reduction", "reduction", "reduction"]} ins(%arg1, %arg2 : tensor<16x4x50x34x3x96xbf16>, tensor<3x96x3x3x96xbf16>) outs(%arg3 : tensor<16x4x48x32x3x96xf32>) {
      ^bb0(%in: bf16, %in_0: bf16, %out: f32):
        %2 = arith.extf %in : bf16 to f32
        %3 = arith.extf %in_0 : bf16 to f32
        %4 = arith.mulf %2, %3 : f32
        %5 = arith.addf %out, %4 : f32
        linalg.yield %5 : f32
      } -> tensor<16x4x48x32x3x96xf32>
    } : (!transform.any_op) -> (!transform.any_value, !transform.any_value)
    %0 = transform.param.constant #iree_codegen.compilation_info<lowering_config = #iree_gpu.lowering_config<{mma_kind = #iree_gpu.mma_layout<MFMA_F32_16x16x16_BF16>, promote_operands = [0, 1], reduction = [0, 0, 0, 0, 0, 0, 2], subgroup = [1, 2, 2, 2, 1, 3, 0], subgroup_m_count = 1 : i64, subgroup_n_count = 2 : i64, workgroup = [1, 2, 2, 32, 1, 96, 0]}>, translation_info = <pipeline = LLVMGPUTileAndFuse workgroup_size = [128, 1, 1] subgroup_size = 64, {gpu_pipeline_options = #iree_gpu.pipeline_options<prefetch_shared_memory = true, use_igemm_convolution = true>, llvm_func_attrs = {"amdgpu-waves-per-eu" = "2"}}>> -> !transform.any_param
    transform.yield %arg0, %0 : !transform.any_op, !transform.any_param
  }
  transform.named_sequence @module7216368369122952845_apply_op_config(%arg0: !transform.any_op {transform.readonly}, %arg1: !transform.any_param {transform.readonly}) {
    transform.annotate %arg0 "compilation_info" = %arg1 : !transform.any_op, !transform.any_param
    transform.yield
  }
  transform.named_sequence @match_conv_2d_bfloat16_forward_128x24x48x384_nhwc_384x1x1x384_fhwc_nhwf_1x1s_0x0p_1x1d_1g$async_dispatch_0_matmul_like_147456x384x384_bf16xbf16xf32(%arg0: !transform.any_op {transform.readonly}) -> (!transform.any_op, !transform.any_param) {
    %inputs, %outputs = transform.iree.match.cast_compatible_dag_from_root %arg0 {
    ^bb0(%arg1: tensor<147456x384xbf16>, %arg2: tensor<384x384xbf16>, %arg3: tensor<147456x384xf32>):
      %1 = linalg.generic {indexing_maps = [affine_map<(d0, d1, d2) -> (d0, d2)>, affine_map<(d0, d1, d2) -> (d1, d2)>, affine_map<(d0, d1, d2) -> (d0, d1)>], iterator_types = ["parallel", "parallel", "reduction"]} ins(%arg1, %arg2 : tensor<147456x384xbf16>, tensor<384x384xbf16>) outs(%arg3 : tensor<147456x384xf32>) {
      ^bb0(%in: bf16, %in_0: bf16, %out: f32):
        %2 = arith.extf %in : bf16 to f32
        %3 = arith.extf %in_0 : bf16 to f32
        %4 = arith.mulf %2, %3 : f32
        %5 = arith.addf %out, %4 : f32
        linalg.yield %5 : f32
      } -> tensor<147456x384xf32>
    } : (!transform.any_op) -> (!transform.any_value, !transform.any_value)
    %0 = transform.param.constant #iree_codegen.compilation_info<lowering_config = #iree_gpu.lowering_config<{mma_kind = #iree_gpu.mma_layout<MFMA_F32_32x32x8_BF16>, promote_operands = [0, 1], reduction = [0, 0, 4], subgroup = [2, 6, 0], subgroup_m_count = 4 : i64, subgroup_n_count = 2 : i64, workgroup = [256, 384, 0]}>, translation_info = <pipeline = LLVMGPUTileAndFuse workgroup_size = [512, 1, 1] subgroup_size = 64, {gpu_pipeline_options = #iree_gpu.pipeline_options<prefetch_shared_memory = true>, llvm_func_attrs = {"amdgpu-waves-per-eu" = "2"}}>> -> !transform.any_param
    transform.yield %arg0, %0 : !transform.any_op, !transform.any_param
  }
  transform.named_sequence @"module-4520889304652789583_apply_op_config"(%arg0: !transform.any_op {transform.readonly}, %arg1: !transform.any_param {transform.readonly}) {
    transform.annotate %arg0 "compilation_info" = %arg1 : !transform.any_op, !transform.any_param
    transform.yield
  }
  transform.named_sequence @match_conv_2d_bfloat16_forward_16x96x64x48_nhwc_48x5x5x48_fhwc_nhwf_1x1s_8x8p_4x4d_1g$async_dispatch_0_conv_16x96x64x48x5x5x48_bf16xbf16xf32(%arg0: !transform.any_op {transform.readonly}) -> (!transform.any_op, !transform.any_param) {
    %inputs, %outputs = transform.iree.match.cast_compatible_dag_from_root %arg0 {
    ^bb0(%arg1: tensor<16x112x80x48xbf16>, %arg2: tensor<48x5x5x48xbf16>, %arg3: tensor<16x96x64x48xf32>):
      %1 = linalg.generic {indexing_maps = [affine_map<(d0, d1, d2, d3, d4, d5, d6) -> (d0, d1 + d4 * 4, d2 + d5 * 4, d6)>, affine_map<(d0, d1, d2, d3, d4, d5, d6) -> (d3, d4, d5, d6)>, affine_map<(d0, d1, d2, d3, d4, d5, d6) -> (d0, d1, d2, d3)>], iterator_types = ["parallel", "parallel", "parallel", "parallel", "reduction", "reduction", "reduction"]} ins(%arg1, %arg2 : tensor<16x112x80x48xbf16>, tensor<48x5x5x48xbf16>) outs(%arg3 : tensor<16x96x64x48xf32>) {
      ^bb0(%in: bf16, %in_0: bf16, %out: f32):
        %2 = arith.extf %in : bf16 to f32
        %3 = arith.extf %in_0 : bf16 to f32
        %4 = arith.mulf %2, %3 : f32
        %5 = arith.addf %out, %4 : f32
        linalg.yield %5 : f32
      } -> tensor<16x96x64x48xf32>
    } : (!transform.any_op) -> (!transform.any_value, !transform.any_value)
    %0 = transform.param.constant #iree_codegen.compilation_info<lowering_config = #iree_gpu.lowering_config<{mma_kind = #iree_gpu.mma_layout<MFMA_F32_32x32x8_BF16>, padding = [1, 2, 32, 64, 48], promote_operands = [0, 1, 2], reduction = [0, 0, 0, 0, 6], subgroup = [1, 2, 1, 1, 0], subgroup_m_count = 1 : i64, subgroup_n_count = 2 : i64, workgroup = [1, 2, 32, 64, 0]}>, translation_info = <pipeline = LLVMGPUTileAndFuse workgroup_size = [128, 1, 1] subgroup_size = 64, {gpu_pipeline_options = #iree_gpu.pipeline_options<prefetch_shared_memory = true, use_igemm_convolution = true>, llvm_func_attrs = {"amdgpu-waves-per-eu" = "2"}}>> -> !transform.any_param
    transform.yield %arg0, %0 : !transform.any_op, !transform.any_param
  }
  transform.named_sequence @module5408025256171335551_apply_op_config(%arg0: !transform.any_op {transform.readonly}, %arg1: !transform.any_param {transform.readonly}) {
    transform.annotate %arg0 "compilation_info" = %arg1 : !transform.any_op, !transform.any_param
    transform.yield
  }
  transform.named_sequence @match_conv_3d_bfloat16_forward_16x4x48x32x288_ndhwc_288x2x1x1x288_fdhwc_ndhwf_2x1x1s_0x0x0p_1x1x1d_1g$async_dispatch_0_conv_16x2x48x32x288x2x288_bf16xbf16xf32(%arg0: !transform.any_op {transform.readonly}) -> (!transform.any_op, !transform.any_param) {
    %inputs, %outputs = transform.iree.match.cast_compatible_dag_from_root %arg0 {
    ^bb0(%arg1: tensor<16x4x48x32x288xbf16>, %arg2: tensor<288x2x288xbf16>, %arg3: tensor<16x2x48x32x288xf32>):
      %1 = linalg.generic {indexing_maps = [affine_map<(d0, d1, d2, d3, d4, d5, d6) -> (d0, d1 * 2 + d5, d2, d3, d6)>, affine_map<(d0, d1, d2, d3, d4, d5, d6) -> (d4, d5, d6)>, affine_map<(d0, d1, d2, d3, d4, d5, d6) -> (d0, d1, d2, d3, d4)>], iterator_types = ["parallel", "parallel", "parallel", "parallel", "parallel", "reduction", "reduction"]} ins(%arg1, %arg2 : tensor<16x4x48x32x288xbf16>, tensor<288x2x288xbf16>) outs(%arg3 : tensor<16x2x48x32x288xf32>) {
      ^bb0(%in: bf16, %in_0: bf16, %out: f32):
        %2 = arith.extf %in : bf16 to f32
        %3 = arith.extf %in_0 : bf16 to f32
        %4 = arith.mulf %2, %3 : f32
        %5 = arith.addf %out, %4 : f32
        linalg.yield %5 : f32
      } -> tensor<16x2x48x32x288xf32>
    } : (!transform.any_op) -> (!transform.any_value, !transform.any_value)
    %0 = transform.param.constant #iree_codegen.compilation_info<lowering_config = #iree_gpu.lowering_config<{mma_kind = #iree_gpu.mma_layout<MFMA_F32_32x32x8_BF16>, promote_operands = [0, 1], reduction = [0, 0, 0, 0, 0, 4], subgroup = [1, 1, 1, 1, 9, 0], subgroup_m_count = 6 : i64, subgroup_n_count = 1 : i64, workgroup = [1, 1, 6, 32, 288, 0]}>, translation_info = <pipeline = LLVMGPUTileAndFuse workgroup_size = [384, 1, 1] subgroup_size = 64, {gpu_pipeline_options = #iree_gpu.pipeline_options<prefetch_shared_memory = true, use_igemm_convolution = true>, llvm_func_attrs = {"amdgpu-waves-per-eu" = "2"}}>> -> !transform.any_param
    transform.yield %arg0, %0 : !transform.any_op, !transform.any_param
  }
  transform.named_sequence @"module-2215561608523455322_apply_op_config"(%arg0: !transform.any_op {transform.readonly}, %arg1: !transform.any_param {transform.readonly}) {
    transform.annotate %arg0 "compilation_info" = %arg1 : !transform.any_op, !transform.any_param
    transform.yield
  }
  transform.named_sequence @match_conv_3d_bfloat16_forward_16x4x48x32x288_ndhwc_288x3x1x1x96_fdhwc_ndhwf_1x1x1s_1x0x0p_1x1x1d_3g$async_dispatch_0_conv_16x4x48x32x3x96x3x96_bf16xbf16xf32(%arg0: !transform.any_op {transform.readonly}) -> (!transform.any_op, !transform.any_param) {
    %inputs, %outputs = transform.iree.match.cast_compatible_dag_from_root %arg0 {
    ^bb0(%arg1: tensor<16x6x48x32x3x96xbf16>, %arg2: tensor<3x96x3x96xbf16>, %arg3: tensor<16x4x48x32x3x96xf32>):
      %1 = linalg.generic {indexing_maps = [affine_map<(d0, d1, d2, d3, d4, d5, d6, d7) -> (d0, d1 + d6, d2, d3, d4, d7)>, affine_map<(d0, d1, d2, d3, d4, d5, d6, d7) -> (d4, d5, d6, d7)>, affine_map<(d0, d1, d2, d3, d4, d5, d6, d7) -> (d0, d1, d2, d3, d4, d5)>], iterator_types = ["parallel", "parallel", "parallel", "parallel", "parallel", "parallel", "reduction", "reduction"]} ins(%arg1, %arg2 : tensor<16x6x48x32x3x96xbf16>, tensor<3x96x3x96xbf16>) outs(%arg3 : tensor<16x4x48x32x3x96xf32>) {
      ^bb0(%in: bf16, %in_0: bf16, %out: f32):
        %2 = arith.extf %in : bf16 to f32
        %3 = arith.extf %in_0 : bf16 to f32
        %4 = arith.mulf %2, %3 : f32
        %5 = arith.addf %out, %4 : f32
        linalg.yield %5 : f32
      } -> tensor<16x4x48x32x3x96xf32>
    } : (!transform.any_op) -> (!transform.any_value, !transform.any_value)
    %0 = transform.param.constant #iree_codegen.compilation_info<lowering_config = #iree_gpu.lowering_config<{mma_kind = #iree_gpu.mma_layout<MFMA_F32_16x16x16_BF16>, promote_operands = [0, 1], reduction = [0, 0, 0, 0, 0, 0, 2], subgroup = [2, 1, 4, 1, 1, 3, 0], subgroup_m_count = 1 : i64, subgroup_n_count = 2 : i64, workgroup = [2, 1, 4, 16, 1, 96, 0]}>, translation_info = <pipeline = LLVMGPUTileAndFuse workgroup_size = [128, 1, 1] subgroup_size = 64, {gpu_pipeline_options = #iree_gpu.pipeline_options<prefetch_shared_memory = true, use_igemm_convolution = true>, llvm_func_attrs = {"amdgpu-waves-per-eu" = "2"}}>> -> !transform.any_param
    transform.yield %arg0, %0 : !transform.any_op, !transform.any_param
  }
  transform.named_sequence @"module-5385892577352669266_apply_op_config"(%arg0: !transform.any_op {transform.readonly}, %arg1: !transform.any_param {transform.readonly}) {
    transform.annotate %arg0 "compilation_info" = %arg1 : !transform.any_op, !transform.any_param
    transform.yield
  }
  transform.named_sequence @match_conv_3d_bfloat16_forward_b_16x8x48x32x288_ndhwc_288x1x3x3x96_fdhwc_ndhwf_1x1x1s_0x1x1p_1x1x1d_3g$async_dispatch_0_conv_16x8x48x32x3x96x3x3x96_bf16xbf16xf32(%arg0: !transform.any_op {transform.readonly}) -> (!transform.any_op, !transform.any_param) {
    %inputs, %outputs = transform.iree.match.cast_compatible_dag_from_root %arg0 {
    ^bb0(%arg1: tensor<16x8x50x34x3x96xbf16>, %arg2: tensor<3x96x3x3x96xbf16>, %arg3: tensor<16x8x48x32x3x96xf32>):
      %1 = linalg.generic {indexing_maps = [affine_map<(d0, d1, d2, d3, d4, d5, d6, d7, d8) -> (d0, d1, d2 + d6, d3 + d7, d4, d8)>, affine_map<(d0, d1, d2, d3, d4, d5, d6, d7, d8) -> (d4, d5, d6, d7, d8)>, affine_map<(d0, d1, d2, d3, d4, d5, d6, d7, d8) -> (d0, d1, d2, d3, d4, d5)>], iterator_types = ["parallel", "parallel", "parallel", "parallel", "parallel", "parallel", "reduction", "reduction", "reduction"]} ins(%arg1, %arg2 : tensor<16x8x50x34x3x96xbf16>, tensor<3x96x3x3x96xbf16>) outs(%arg3 : tensor<16x8x48x32x3x96xf32>) {
      ^bb0(%in: bf16, %in_0: bf16, %out: f32):
        %2 = arith.extf %in : bf16 to f32
        %3 = arith.extf %in_0 : bf16 to f32
        %4 = arith.mulf %2, %3 : f32
        %5 = arith.addf %out, %4 : f32
        linalg.yield %5 : f32
      } -> tensor<16x8x48x32x3x96xf32>
    } : (!transform.any_op) -> (!transform.any_value, !transform.any_value)
    %0 = transform.param.constant #iree_codegen.compilation_info<lowering_config = #iree_gpu.lowering_config<{mma_kind = #iree_gpu.mma_layout<MFMA_F32_16x16x16_BF16>, promote_operands = [0, 1], reduction = [0, 0, 0, 0, 0, 0, 2], subgroup = [1, 1, 3, 1, 1, 6, 0], subgroup_m_count = 2 : i64, subgroup_n_count = 1 : i64, workgroup = [1, 1, 6, 16, 1, 96, 0]}>, translation_info = <pipeline = LLVMGPUTileAndFuse workgroup_size = [128, 1, 1] subgroup_size = 64, {gpu_pipeline_options = #iree_gpu.pipeline_options<prefetch_shared_memory = true, use_igemm_convolution = true>, llvm_func_attrs = {"amdgpu-waves-per-eu" = "2"}}>> -> !transform.any_param
    transform.yield %arg0, %0 : !transform.any_op, !transform.any_param
  }
  transform.named_sequence @module3515167887415924444_apply_op_config(%arg0: !transform.any_op {transform.readonly}, %arg1: !transform.any_param {transform.readonly}) {
    transform.annotate %arg0 "compilation_info" = %arg1 : !transform.any_op, !transform.any_param
    transform.yield
  }
  transform.named_sequence @match_conv_2d_bfloat16_forward_16x48x32x576_nhwc_576x3x3x576_fhwc_nhwf_1x1s_1x1p_1x1d_1g$async_dispatch_0_conv_16x48x32x576x3x3x576_bf16xbf16xf32(%arg0: !transform.any_op {transform.readonly}) -> (!transform.any_op, !transform.any_param) {
    %inputs, %outputs = transform.iree.match.cast_compatible_dag_from_root %arg0 {
    ^bb0(%arg1: tensor<16x50x34x576xbf16>, %arg2: tensor<576x3x3x576xbf16>, %arg3: tensor<16x48x32x576xf32>):
      %1 = linalg.generic {indexing_maps = [affine_map<(d0, d1, d2, d3, d4, d5, d6) -> (d0, d1 + d4, d2 + d5, d6)>, affine_map<(d0, d1, d2, d3, d4, d5, d6) -> (d3, d4, d5, d6)>, affine_map<(d0, d1, d2, d3, d4, d5, d6) -> (d0, d1, d2, d3)>], iterator_types = ["parallel", "parallel", "parallel", "parallel", "reduction", "reduction", "reduction"]} ins(%arg1, %arg2 : tensor<16x50x34x576xbf16>, tensor<576x3x3x576xbf16>) outs(%arg3 : tensor<16x48x32x576xf32>) {
      ^bb0(%in: bf16, %in_0: bf16, %out: f32):
        %2 = arith.extf %in : bf16 to f32
        %3 = arith.extf %in_0 : bf16 to f32
        %4 = arith.mulf %2, %3 : f32
        %5 = arith.addf %out, %4 : f32
        linalg.yield %5 : f32
      } -> tensor<16x48x32x576xf32>
    } : (!transform.any_op) -> (!transform.any_value, !transform.any_value)
    %0 = transform.param.constant #iree_codegen.compilation_info<lowering_config = #iree_gpu.lowering_config<{mma_kind = #iree_gpu.mma_layout<MFMA_F32_16x16x16_BF16>, promote_operands = [0, 1], reduction = [0, 0, 0, 0, 2], subgroup = [8, 1, 1, 3, 0], subgroup_m_count = 1 : i64, subgroup_n_count = 4 : i64, workgroup = [8, 1, 16, 192, 0]}>, translation_info = <pipeline = LLVMGPUTileAndFuse workgroup_size = [256, 1, 1] subgroup_size = 64, {gpu_pipeline_options = #iree_gpu.pipeline_options<prefetch_shared_memory = true, use_igemm_convolution = true>, llvm_func_attrs = {"amdgpu-waves-per-eu" = "2"}}>> -> !transform.any_param
    transform.yield %arg0, %0 : !transform.any_op, !transform.any_param
  }
  transform.named_sequence @module1669037280268302384_apply_op_config(%arg0: !transform.any_op {transform.readonly}, %arg1: !transform.any_param {transform.readonly}) {
    transform.annotate %arg0 "compilation_info" = %arg1 : !transform.any_op, !transform.any_param
    transform.yield
  }
  transform.named_sequence @match_conv_2d_bfloat16_forward_128x48x32x384_nhwc_96x1x1x384_fhwc_nhwf_1x1s_0x0p_1x1d_1g$async_dispatch_0_matmul_like_196608x96x384_bf16xbf16xf32(%arg0: !transform.any_op {transform.readonly}) -> (!transform.any_op, !transform.any_param) {
    %inputs, %outputs = transform.iree.match.cast_compatible_dag_from_root %arg0 {
    ^bb0(%arg1: tensor<196608x384xbf16>, %arg2: tensor<96x384xbf16>, %arg3: tensor<196608x96xf32>):
      %1 = linalg.generic {indexing_maps = [affine_map<(d0, d1, d2) -> (d0, d2)>, affine_map<(d0, d1, d2) -> (d1, d2)>, affine_map<(d0, d1, d2) -> (d0, d1)>], iterator_types = ["parallel", "parallel", "reduction"]} ins(%arg1, %arg2 : tensor<196608x384xbf16>, tensor<96x384xbf16>) outs(%arg3 : tensor<196608x96xf32>) {
      ^bb0(%in: bf16, %in_0: bf16, %out: f32):
        %2 = arith.extf %in : bf16 to f32
        %3 = arith.extf %in_0 : bf16 to f32
        %4 = arith.mulf %2, %3 : f32
        %5 = arith.addf %out, %4 : f32
        linalg.yield %5 : f32
      } -> tensor<196608x96xf32>
    } : (!transform.any_op) -> (!transform.any_value, !transform.any_value)
    %0 = transform.param.constant #iree_codegen.compilation_info<lowering_config = #iree_gpu.lowering_config<{mma_kind = #iree_gpu.mma_layout<MFMA_F32_16x16x16_BF16>, promote_operands = [0, 1], reduction = [0, 0, 4], subgroup = [3, 3, 0], subgroup_m_count = 2 : i64, subgroup_n_count = 2 : i64, workgroup = [96, 96, 0]}>, translation_info = <pipeline = LLVMGPUTileAndFuse workgroup_size = [256, 1, 1] subgroup_size = 64, {gpu_pipeline_options = #iree_gpu.pipeline_options<prefetch_shared_memory = true>, llvm_func_attrs = {"amdgpu-waves-per-eu" = "2"}}>> -> !transform.any_param
    transform.yield %arg0, %0 : !transform.any_op, !transform.any_param
  }
  transform.named_sequence @module1291937590125293741_apply_op_config(%arg0: !transform.any_op {transform.readonly}, %arg1: !transform.any_param {transform.readonly}) {
    transform.annotate %arg0 "compilation_info" = %arg1 : !transform.any_op, !transform.any_param
    transform.yield
  }
  transform.named_sequence @match_conv_3d_bfloat16_forward_16x2x48x32x288_ndhwc_288x1x3x3x96_fdhwc_ndhwf_1x1x1s_0x1x1p_1x1x1d_3g$async_dispatch_0_conv_16x2x48x32x3x96x3x3x96_bf16xbf16xf32(%arg0: !transform.any_op {transform.readonly}) -> (!transform.any_op, !transform.any_param) {
    %inputs, %outputs = transform.iree.match.cast_compatible_dag_from_root %arg0 {
    ^bb0(%arg1: tensor<16x2x50x34x3x96xbf16>, %arg2: tensor<3x96x3x3x96xbf16>, %arg3: tensor<16x2x48x32x3x96xf32>):
      %1 = linalg.generic {indexing_maps = [affine_map<(d0, d1, d2, d3, d4, d5, d6, d7, d8) -> (d0, d1, d2 + d6, d3 + d7, d4, d8)>, affine_map<(d0, d1, d2, d3, d4, d5, d6, d7, d8) -> (d4, d5, d6, d7, d8)>, affine_map<(d0, d1, d2, d3, d4, d5, d6, d7, d8) -> (d0, d1, d2, d3, d4, d5)>], iterator_types = ["parallel", "parallel", "parallel", "parallel", "parallel", "parallel", "reduction", "reduction", "reduction"]} ins(%arg1, %arg2 : tensor<16x2x50x34x3x96xbf16>, tensor<3x96x3x3x96xbf16>) outs(%arg3 : tensor<16x2x48x32x3x96xf32>) {
      ^bb0(%in: bf16, %in_0: bf16, %out: f32):
        %2 = arith.extf %in : bf16 to f32
        %3 = arith.extf %in_0 : bf16 to f32
        %4 = arith.mulf %2, %3 : f32
        %5 = arith.addf %out, %4 : f32
        linalg.yield %5 : f32
      } -> tensor<16x2x48x32x3x96xf32>
    } : (!transform.any_op) -> (!transform.any_value, !transform.any_value)
    %0 = transform.param.constant #iree_codegen.compilation_info<lowering_config = #iree_gpu.lowering_config<{mma_kind = #iree_gpu.mma_layout<MFMA_F32_32x32x8_BF16>, promote_operands = [0, 1], reduction = [0, 0, 0, 0, 0, 0, 4], subgroup = [2, 1, 1, 1, 1, 3, 0], subgroup_m_count = 2 : i64, subgroup_n_count = 1 : i64, workgroup = [4, 1, 1, 32, 1, 96, 0]}>, translation_info = <pipeline = LLVMGPUTileAndFuse workgroup_size = [128, 1, 1] subgroup_size = 64, {gpu_pipeline_options = #iree_gpu.pipeline_options<prefetch_shared_memory = true, use_igemm_convolution = true>, llvm_func_attrs = {"amdgpu-waves-per-eu" = "2"}}>> -> !transform.any_param
    transform.yield %arg0, %0 : !transform.any_op, !transform.any_param
  }
  transform.named_sequence @"module-6865705440217477667_apply_op_config"(%arg0: !transform.any_op {transform.readonly}, %arg1: !transform.any_param {transform.readonly}) {
    transform.annotate %arg0 "compilation_info" = %arg1 : !transform.any_op, !transform.any_param
    transform.yield
  }
  transform.named_sequence @match_conv_2d_bfloat16_forward_16x48x32x288_nhwc_288x3x3x288_fhwc_nhwf_1x1s_1x1p_1x1d_1g$async_dispatch_0_conv_16x48x32x288x3x3x288_bf16xbf16xf32(%arg0: !transform.any_op {transform.readonly}) -> (!transform.any_op, !transform.any_param) {
    %inputs, %outputs = transform.iree.match.cast_compatible_dag_from_root %arg0 {
    ^bb0(%arg1: tensor<16x50x34x288xbf16>, %arg2: tensor<288x3x3x288xbf16>, %arg3: tensor<16x48x32x288xf32>):
      %1 = linalg.generic {indexing_maps = [affine_map<(d0, d1, d2, d3, d4, d5, d6) -> (d0, d1 + d4, d2 + d5, d6)>, affine_map<(d0, d1, d2, d3, d4, d5, d6) -> (d3, d4, d5, d6)>, affine_map<(d0, d1, d2, d3, d4, d5, d6) -> (d0, d1, d2, d3)>], iterator_types = ["parallel", "parallel", "parallel", "parallel", "reduction", "reduction", "reduction"]} ins(%arg1, %arg2 : tensor<16x50x34x288xbf16>, tensor<288x3x3x288xbf16>) outs(%arg3 : tensor<16x48x32x288xf32>) {
      ^bb0(%in: bf16, %in_0: bf16, %out: f32):
        %2 = arith.extf %in : bf16 to f32
        %3 = arith.extf %in_0 : bf16 to f32
        %4 = arith.mulf %2, %3 : f32
        %5 = arith.addf %out, %4 : f32
        linalg.yield %5 : f32
      } -> tensor<16x48x32x288xf32>
    } : (!transform.any_op) -> (!transform.any_value, !transform.any_value)
    %0 = transform.param.constant #iree_codegen.compilation_info<lowering_config = #iree_gpu.lowering_config<{mma_kind = #iree_gpu.mma_layout<MFMA_F32_16x16x16_BF16>, promote_operands = [0, 1], reduction = [0, 0, 0, 0, 2], subgroup = [2, 3, 1, 3, 0], subgroup_m_count = 1 : i64, subgroup_n_count = 3 : i64, workgroup = [2, 3, 16, 144, 0]}>, translation_info = <pipeline = LLVMGPUTileAndFuse workgroup_size = [192, 1, 1] subgroup_size = 64, {gpu_pipeline_options = #iree_gpu.pipeline_options<prefetch_shared_memory = true, use_igemm_convolution = true>, llvm_func_attrs = {"amdgpu-waves-per-eu" = "2"}}>> -> !transform.any_param
    transform.yield %arg0, %0 : !transform.any_op, !transform.any_param
  }
  transform.named_sequence @module8204484670706657071_apply_op_config(%arg0: !transform.any_op {transform.readonly}, %arg1: !transform.any_param {transform.readonly}) {
    transform.annotate %arg0 "compilation_info" = %arg1 : !transform.any_op, !transform.any_param
    transform.yield
  }
  transform.named_sequence @match_conv_2d_bfloat16_forward_16x48x32x768_nhwc_2048x3x3x768_fhwc_nhwf_1x1s_1x1p_1x1d_1g$async_dispatch_0_conv_16x48x32x2048x3x3x768_bf16xbf16xf32(%arg0: !transform.any_op {transform.readonly}) -> (!transform.any_op, !transform.any_param) {
    %inputs, %outputs = transform.iree.match.cast_compatible_dag_from_root %arg0 {
    ^bb0(%arg1: tensor<16x50x34x768xbf16>, %arg2: tensor<2048x3x3x768xbf16>, %arg3: tensor<16x48x32x2048xf32>):
      %1 = linalg.generic {indexing_maps = [affine_map<(d0, d1, d2, d3, d4, d5, d6) -> (d0, d1 + d4, d2 + d5, d6)>, affine_map<(d0, d1, d2, d3, d4, d5, d6) -> (d3, d4, d5, d6)>, affine_map<(d0, d1, d2, d3, d4, d5, d6) -> (d0, d1, d2, d3)>], iterator_types = ["parallel", "parallel", "parallel", "parallel", "reduction", "reduction", "reduction"]} ins(%arg1, %arg2 : tensor<16x50x34x768xbf16>, tensor<2048x3x3x768xbf16>) outs(%arg3 : tensor<16x48x32x2048xf32>) {
      ^bb0(%in: bf16, %in_0: bf16, %out: f32):
        %2 = arith.extf %in : bf16 to f32
        %3 = arith.extf %in_0 : bf16 to f32
        %4 = arith.mulf %2, %3 : f32
        %5 = arith.addf %out, %4 : f32
        linalg.yield %5 : f32
      } -> tensor<16x48x32x2048xf32>
    } : (!transform.any_op) -> (!transform.any_value, !transform.any_value)
    %0 = transform.param.constant #iree_codegen.compilation_info<lowering_config = #iree_gpu.lowering_config<{mma_kind = #iree_gpu.mma_layout<MFMA_F32_16x16x16_BF16>, promote_operands = [0, 1], reduction = [0, 0, 0, 0, 2], subgroup = [4, 1, 1, 8, 0], subgroup_m_count = 2 : i64, subgroup_n_count = 2 : i64, workgroup = [8, 1, 16, 256, 0]}>, translation_info = <pipeline = LLVMGPUTileAndFuse workgroup_size = [256, 1, 1] subgroup_size = 64, {gpu_pipeline_options = #iree_gpu.pipeline_options<prefetch_shared_memory = true, use_igemm_convolution = true>, llvm_func_attrs = {"amdgpu-waves-per-eu" = "2"}}>> -> !transform.any_param
    transform.yield %arg0, %0 : !transform.any_op, !transform.any_param
  }
  transform.named_sequence @module3663013193463791761_apply_op_config(%arg0: !transform.any_op {transform.readonly}, %arg1: !transform.any_param {transform.readonly}) {
    transform.annotate %arg0 "compilation_info" = %arg1 : !transform.any_op, !transform.any_param
    transform.yield
  }
  transform.named_sequence @match_conv_3d_bfloat16_forward_16x8x48x32x288_ndhwc_288x2x1x1x288_fdhwc_ndhwf_2x1x1s_0x0x0p_1x1x1d_1g$async_dispatch_0_conv_16x4x48x32x288x2x288_bf16xbf16xf32(%arg0: !transform.any_op {transform.readonly}) -> (!transform.any_op, !transform.any_param) {
    %inputs, %outputs = transform.iree.match.cast_compatible_dag_from_root %arg0 {
    ^bb0(%arg1: tensor<16x8x48x32x288xbf16>, %arg2: tensor<288x2x288xbf16>, %arg3: tensor<16x4x48x32x288xf32>):
      %1 = linalg.generic {indexing_maps = [affine_map<(d0, d1, d2, d3, d4, d5, d6) -> (d0, d1 * 2 + d5, d2, d3, d6)>, affine_map<(d0, d1, d2, d3, d4, d5, d6) -> (d4, d5, d6)>, affine_map<(d0, d1, d2, d3, d4, d5, d6) -> (d0, d1, d2, d3, d4)>], iterator_types = ["parallel", "parallel", "parallel", "parallel", "parallel", "reduction", "reduction"]} ins(%arg1, %arg2 : tensor<16x8x48x32x288xbf16>, tensor<288x2x288xbf16>) outs(%arg3 : tensor<16x4x48x32x288xf32>) {
      ^bb0(%in: bf16, %in_0: bf16, %out: f32):
        %2 = arith.extf %in : bf16 to f32
        %3 = arith.extf %in_0 : bf16 to f32
        %4 = arith.mulf %2, %3 : f32
        %5 = arith.addf %out, %4 : f32
        linalg.yield %5 : f32
      } -> tensor<16x4x48x32x288xf32>
    } : (!transform.any_op) -> (!transform.any_value, !transform.any_value)
    %0 = transform.param.constant #iree_codegen.compilation_info<lowering_config = #iree_gpu.lowering_config<{mma_kind = #iree_gpu.mma_layout<MFMA_F32_32x32x8_BF16>, promote_operands = [0, 1], reduction = [0, 0, 0, 0, 0, 4], subgroup = [1, 1, 3, 1, 3, 0], subgroup_m_count = 2 : i64, subgroup_n_count = 3 : i64, workgroup = [1, 1, 6, 32, 288, 0]}>, translation_info = <pipeline = LLVMGPUTileAndFuse workgroup_size = [384, 1, 1] subgroup_size = 64, {gpu_pipeline_options = #iree_gpu.pipeline_options<prefetch_shared_memory = true, use_igemm_convolution = true>, llvm_func_attrs = {"amdgpu-waves-per-eu" = "2"}}>> -> !transform.any_param
    transform.yield %arg0, %0 : !transform.any_op, !transform.any_param
  }
  transform.named_sequence @"module-2183437910029537272_apply_op_config"(%arg0: !transform.any_op {transform.readonly}, %arg1: !transform.any_param {transform.readonly}) {
    transform.annotate %arg0 "compilation_info" = %arg1 : !transform.any_op, !transform.any_param
    transform.yield
  }
  transform.named_sequence @match_conv_3d_bfloat16_forward_16x8x48x32x288_ndhwc_288x3x1x1x96_fdhwc_ndhwf_1x1x1s_1x0x0p_1x1x1d_3g$async_dispatch_0_conv_16x8x48x32x3x96x3x96_bf16xbf16xf32(%arg0: !transform.any_op {transform.readonly}) -> (!transform.any_op, !transform.any_param) {
    %inputs, %outputs = transform.iree.match.cast_compatible_dag_from_root %arg0 {
    ^bb0(%arg1: tensor<16x10x48x32x3x96xbf16>, %arg2: tensor<3x96x3x96xbf16>, %arg3: tensor<16x8x48x32x3x96xf32>):
      %1 = linalg.generic {indexing_maps = [affine_map<(d0, d1, d2, d3, d4, d5, d6, d7) -> (d0, d1 + d6, d2, d3, d4, d7)>, affine_map<(d0, d1, d2, d3, d4, d5, d6, d7) -> (d4, d5, d6, d7)>, affine_map<(d0, d1, d2, d3, d4, d5, d6, d7) -> (d0, d1, d2, d3, d4, d5)>], iterator_types = ["parallel", "parallel", "parallel", "parallel", "parallel", "parallel", "reduction", "reduction"]} ins(%arg1, %arg2 : tensor<16x10x48x32x3x96xbf16>, tensor<3x96x3x96xbf16>) outs(%arg3 : tensor<16x8x48x32x3x96xf32>) {
      ^bb0(%in: bf16, %in_0: bf16, %out: f32):
        %2 = arith.extf %in : bf16 to f32
        %3 = arith.extf %in_0 : bf16 to f32
        %4 = arith.mulf %2, %3 : f32
        %5 = arith.addf %out, %4 : f32
        linalg.yield %5 : f32
      } -> tensor<16x8x48x32x3x96xf32>
    } : (!transform.any_op) -> (!transform.any_value, !transform.any_value)
    %0 = transform.param.constant #iree_codegen.compilation_info<lowering_config = #iree_gpu.lowering_config<{mma_kind = #iree_gpu.mma_layout<MFMA_F32_16x16x16_BF16>, promote_operands = [0, 1], reduction = [0, 0, 0, 0, 0, 0, 2], subgroup = [4, 1, 2, 1, 1, 3, 0], subgroup_m_count = 1 : i64, subgroup_n_count = 2 : i64, workgroup = [4, 1, 2, 16, 1, 96, 0]}>, translation_info = <pipeline = LLVMGPUTileAndFuse workgroup_size = [128, 1, 1] subgroup_size = 64, {gpu_pipeline_options = #iree_gpu.pipeline_options<prefetch_shared_memory = true, use_igemm_convolution = true>, llvm_func_attrs = {"amdgpu-waves-per-eu" = "2"}}>> -> !transform.any_param
    transform.yield %arg0, %0 : !transform.any_op, !transform.any_param
  }
  transform.named_sequence @"module-4567873843891099811_apply_op_config"(%arg0: !transform.any_op {transform.readonly}, %arg1: !transform.any_param {transform.readonly}) {
    transform.annotate %arg0 "compilation_info" = %arg1 : !transform.any_op, !transform.any_param
    transform.yield
  }
  transform.named_sequence @match_conv_3d_bfloat16_forward_16x4x48x32x288_ndhwc_288x1x3x3x96_fdhwc_ndhwf_1x1x1s_0x1x1p_1x1x1d_3g$async_dispatch_0_conv_16x4x48x32x3x96x3x3x96_bf16xbf16xf32(%arg0: !transform.any_op {transform.readonly}) -> (!transform.any_op, !transform.any_param) {
    %inputs, %outputs = transform.iree.match.cast_compatible_dag_from_root %arg0 {
    ^bb0(%arg1: tensor<16x4x50x34x3x96xbf16>, %arg2: tensor<3x96x3x3x96xbf16>, %arg3: tensor<16x4x48x32x3x96xf32>):
      %1 = linalg.generic {indexing_maps = [affine_map<(d0, d1, d2, d3, d4, d5, d6, d7, d8) -> (d0, d1, d2 + d6, d3 + d7, d4, d8)>, affine_map<(d0, d1, d2, d3, d4, d5, d6, d7, d8) -> (d4, d5, d6, d7, d8)>, affine_map<(d0, d1, d2, d3, d4, d5, d6, d7, d8) -> (d0, d1, d2, d3, d4, d5)>], iterator_types = ["parallel", "parallel", "parallel", "parallel", "parallel", "parallel", "reduction", "reduction", "reduction"]} ins(%arg1, %arg2 : tensor<16x4x50x34x3x96xbf16>, tensor<3x96x3x3x96xbf16>) outs(%arg3 : tensor<16x4x48x32x3x96xf32>) {
      ^bb0(%in: bf16, %in_0: bf16, %out: f32):
        %2 = arith.extf %in : bf16 to f32
        %3 = arith.extf %in_0 : bf16 to f32
        %4 = arith.mulf %2, %3 : f32
        %5 = arith.addf %out, %4 : f32
        linalg.yield %5 : f32
      } -> tensor<16x4x48x32x3x96xf32>
    } : (!transform.any_op) -> (!transform.any_value, !transform.any_value)
    %0 = transform.param.constant #iree_codegen.compilation_info<lowering_config = #iree_gpu.lowering_config<{mma_kind = #iree_gpu.mma_layout<MFMA_F32_16x16x16_BF16>, promote_operands = [0, 1], reduction = [0, 0, 0, 0, 0, 0, 2], subgroup = [2, 1, 2, 1, 1, 6, 0], subgroup_m_count = 2 : i64, subgroup_n_count = 1 : i64, workgroup = [4, 1, 2, 16, 1, 96, 0]}>, translation_info = <pipeline = LLVMGPUTileAndFuse workgroup_size = [128, 1, 1] subgroup_size = 64, {gpu_pipeline_options = #iree_gpu.pipeline_options<prefetch_shared_memory = true, use_igemm_convolution = true>, llvm_func_attrs = {"amdgpu-waves-per-eu" = "2"}}>> -> !transform.any_param
    transform.yield %arg0, %0 : !transform.any_op, !transform.any_param
  }
  transform.named_sequence @"module-2973162512074653305_apply_op_config"(%arg0: !transform.any_op {transform.readonly}, %arg1: !transform.any_param {transform.readonly}) {
    transform.annotate %arg0 "compilation_info" = %arg1 : !transform.any_op, !transform.any_param
    transform.yield
  }
  transform.named_sequence @match_conv_2d_bfloat16_forward_16x48x32x2048_nhwc_2048x3x1x2048_fhwc_nhwf_3x1s_1x0p_1x1d_1g$async_dispatch_0_conv_16x16x32x2048x3x2048_bf16xbf16xf32(%arg0: !transform.any_op {transform.readonly}) -> (!transform.any_op, !transform.any_param) {
    %inputs, %outputs = transform.iree.match.cast_compatible_dag_from_root %arg0 {
    ^bb0(%arg1: tensor<16x50x32x2048xbf16>, %arg2: tensor<2048x3x2048xbf16>, %arg3: tensor<16x16x32x2048xf32>):
      %1 = linalg.generic {indexing_maps = [affine_map<(d0, d1, d2, d3, d4, d5) -> (d0, d1 * 3 + d4, d2, d5)>, affine_map<(d0, d1, d2, d3, d4, d5) -> (d3, d4, d5)>, affine_map<(d0, d1, d2, d3, d4, d5) -> (d0, d1, d2, d3)>], iterator_types = ["parallel", "parallel", "parallel", "parallel", "reduction", "reduction"]} ins(%arg1, %arg2 : tensor<16x50x32x2048xbf16>, tensor<2048x3x2048xbf16>) outs(%arg3 : tensor<16x16x32x2048xf32>) {
      ^bb0(%in: bf16, %in_0: bf16, %out: f32):
        %2 = arith.extf %in : bf16 to f32
        %3 = arith.extf %in_0 : bf16 to f32
        %4 = arith.mulf %2, %3 : f32
        %5 = arith.addf %out, %4 : f32
        linalg.yield %5 : f32
      } -> tensor<16x16x32x2048xf32>
    } : (!transform.any_op) -> (!transform.any_value, !transform.any_value)
    %0 = transform.param.constant #iree_codegen.compilation_info<lowering_config = #iree_gpu.lowering_config<{mma_kind = #iree_gpu.mma_layout<MFMA_F32_16x16x16_BF16>, promote_operands = [0, 1], reduction = [0, 0, 0, 0, 2], subgroup = [4, 1, 1, 8, 0], subgroup_m_count = 4 : i64, subgroup_n_count = 2 : i64, workgroup = [16, 1, 16, 256, 0]}>, translation_info = <pipeline = LLVMGPUTileAndFuse workgroup_size = [512, 1, 1] subgroup_size = 64, {gpu_pipeline_options = #iree_gpu.pipeline_options<prefetch_shared_memory = true, use_igemm_convolution = true>, llvm_func_attrs = {"amdgpu-waves-per-eu" = "2"}}>> -> !transform.any_param
    transform.yield %arg0, %0 : !transform.any_op, !transform.any_param
  }
  transform.named_sequence @module6559857971860772791_apply_op_config(%arg0: !transform.any_op {transform.readonly}, %arg1: !transform.any_param {transform.readonly}) {
    transform.annotate %arg0 "compilation_info" = %arg1 : !transform.any_op, !transform.any_param
    transform.yield
  }
  transform.named_sequence @match_conv_3d_bfloat16_forward_16x8x48x32x288_ndhwc_288x1x3x3x96_fdhwc_ndhwf_1x1x1s_0x1x1p_1x1x1d_3g$async_dispatch_0_conv_16x8x48x32x3x96x3x3x96_bf16xbf16xf32(%arg0: !transform.any_op {transform.readonly}) -> (!transform.any_op, !transform.any_param) {
    %inputs, %outputs = transform.iree.match.cast_compatible_dag_from_root %arg0 {
    ^bb0(%arg1: tensor<16x8x50x34x3x96xbf16>, %arg2: tensor<3x96x3x3x96xbf16>, %arg3: tensor<16x8x48x32x3x96xf32>):
      %1 = linalg.generic {indexing_maps = [affine_map<(d0, d1, d2, d3, d4, d5, d6, d7, d8) -> (d0, d1, d2 + d6, d3 + d7, d4, d8)>, affine_map<(d0, d1, d2, d3, d4, d5, d6, d7, d8) -> (d4, d5, d6, d7, d8)>, affine_map<(d0, d1, d2, d3, d4, d5, d6, d7, d8) -> (d0, d1, d2, d3, d4, d5)>], iterator_types = ["parallel", "parallel", "parallel", "parallel", "parallel", "parallel", "reduction", "reduction", "reduction"]} ins(%arg1, %arg2 : tensor<16x8x50x34x3x96xbf16>, tensor<3x96x3x3x96xbf16>) outs(%arg3 : tensor<16x8x48x32x3x96xf32>) {
      ^bb0(%in: bf16, %in_0: bf16, %out: f32):
        %2 = arith.extf %in : bf16 to f32
        %3 = arith.extf %in_0 : bf16 to f32
        %4 = arith.mulf %2, %3 : f32
        %5 = arith.addf %out, %4 : f32
        linalg.yield %5 : f32
      } -> tensor<16x8x48x32x3x96xf32>
    } : (!transform.any_op) -> (!transform.any_value, !transform.any_value)
    %0 = transform.param.constant #iree_codegen.compilation_info<lowering_config = #iree_gpu.lowering_config<{mma_kind = #iree_gpu.mma_layout<MFMA_F32_32x32x8_BF16>, promote_operands = [0, 1], reduction = [0, 0, 0, 0, 0, 0, 4], subgroup = [1, 1, 1, 1, 1, 3, 0], subgroup_m_count = 6 : i64, subgroup_n_count = 1 : i64, workgroup = [1, 2, 3, 32, 1, 96, 0]}>, translation_info = <pipeline = LLVMGPUTileAndFuse workgroup_size = [384, 1, 1] subgroup_size = 64, {gpu_pipeline_options = #iree_gpu.pipeline_options<prefetch_shared_memory = true, use_igemm_convolution = true>, llvm_func_attrs = {"amdgpu-waves-per-eu" = "2"}}>> -> !transform.any_param
    transform.yield %arg0, %0 : !transform.any_op, !transform.any_param
  }
  transform.named_sequence @module2310130817867977318_apply_op_config(%arg0: !transform.any_op {transform.readonly}, %arg1: !transform.any_param {transform.readonly}) {
    transform.annotate %arg0 "compilation_info" = %arg1 : !transform.any_op, !transform.any_param
    transform.yield
  }
  transform.named_sequence @match_conv_2d_bfloat16_forward_16x192x128x40_nhwc_40x3x3x40_fhwc_nhwf_2x2s_1x1p_1x1d_1g$async_dispatch_0_conv_16x96x64x40x3x3x40_bf16xbf16xf32(%arg0: !transform.any_op {transform.readonly}) -> (!transform.any_op, !transform.any_param) {
    %inputs, %outputs = transform.iree.match.cast_compatible_dag_from_root %arg0 {
    ^bb0(%arg1: tensor<16x194x130x40xbf16>, %arg2: tensor<40x3x3x40xbf16>, %arg3: tensor<16x96x64x40xf32>):
      %1 = linalg.generic {indexing_maps = [affine_map<(d0, d1, d2, d3, d4, d5, d6) -> (d0, d1 * 2 + d4, d2 * 2 + d5, d6)>, affine_map<(d0, d1, d2, d3, d4, d5, d6) -> (d3, d4, d5, d6)>, affine_map<(d0, d1, d2, d3, d4, d5, d6) -> (d0, d1, d2, d3)>], iterator_types = ["parallel", "parallel", "parallel", "parallel", "reduction", "reduction", "reduction"]} ins(%arg1, %arg2 : tensor<16x194x130x40xbf16>, tensor<40x3x3x40xbf16>) outs(%arg3 : tensor<16x96x64x40xf32>) {
      ^bb0(%in: bf16, %in_0: bf16, %out: f32):
        %2 = arith.extf %in : bf16 to f32
        %3 = arith.extf %in_0 : bf16 to f32
        %4 = arith.mulf %2, %3 : f32
        %5 = arith.addf %out, %4 : f32
        linalg.yield %5 : f32
      } -> tensor<16x96x64x40xf32>
    } : (!transform.any_op) -> (!transform.any_value, !transform.any_value)
    %0 = transform.param.constant #iree_codegen.compilation_info<lowering_config = #iree_gpu.lowering_config<{mma_kind = #iree_gpu.mma_layout<MFMA_F32_32x32x8_BF16>, padding = [1, 3, 64, 64, 24], promote_operands = [0, 1, 2], reduction = [0, 0, 0, 0, 3], subgroup = [1, 1, 2, 2, 0], subgroup_m_count = 3 : i64, subgroup_n_count = 1 : i64, workgroup = [1, 3, 64, 64, 0]}>, translation_info = <pipeline = LLVMGPUTileAndFuse workgroup_size = [192, 1, 1] subgroup_size = 64, {gpu_pipeline_options = #iree_gpu.pipeline_options<prefetch_shared_memory = true, use_igemm_convolution = true>, llvm_func_attrs = {"amdgpu-waves-per-eu" = "2"}}>> -> !transform.any_param
    transform.yield %arg0, %0 : !transform.any_op, !transform.any_param
  }
  transform.named_sequence @module2054123257679205068_apply_op_config(%arg0: !transform.any_op {transform.readonly}, %arg1: !transform.any_param {transform.readonly}) {
    transform.annotate %arg0 "compilation_info" = %arg1 : !transform.any_op, !transform.any_param
    transform.yield
  }
  transform.named_sequence @module3663013193463791761_match_conv_2d_bfloat16_forward_16x48x32x768_nhwc_2048x3x3x768_fhwc_nhwf_1x1s_1x1p_1x1d_1g$async_dispatch_0_conv_16x48x32x2048x3x3x768_bf16xbf16xf32(%arg0: !transform.any_op {transform.readonly}) -> (!transform.any_op, !transform.any_param) {
    %inputs, %outputs = transform.iree.match.cast_compatible_dag_from_root %arg0 {
    ^bb0(%arg1: tensor<16x50x34x768xbf16>, %arg2: tensor<2048x3x3x768xbf16>, %arg3: tensor<16x48x32x2048xf32>):
      %1 = linalg.generic {indexing_maps = [affine_map<(d0, d1, d2, d3, d4, d5, d6) -> (d0, d1 + d4, d2 + d5, d6)>, affine_map<(d0, d1, d2, d3, d4, d5, d6) -> (d3, d4, d5, d6)>, affine_map<(d0, d1, d2, d3, d4, d5, d6) -> (d0, d1, d2, d3)>], iterator_types = ["parallel", "parallel", "parallel", "parallel", "reduction", "reduction", "reduction"]} ins(%arg1, %arg2 : tensor<16x50x34x768xbf16>, tensor<2048x3x3x768xbf16>) outs(%arg3 : tensor<16x48x32x2048xf32>) {
      ^bb0(%in: bf16, %in_0: bf16, %out: f32):
        %2 = arith.extf %in : bf16 to f32
        %3 = arith.extf %in_0 : bf16 to f32
        %4 = arith.mulf %2, %3 : f32
        %5 = arith.addf %out, %4 : f32
        linalg.yield %5 : f32
      } -> tensor<16x48x32x2048xf32>
    } : (!transform.any_op) -> (!transform.any_value, !transform.any_value)
    %0 = transform.param.constant #iree_codegen.compilation_info<lowering_config = #iree_gpu.lowering_config<{mma_kind = #iree_gpu.mma_layout<MFMA_F32_16x16x16_BF16>, promote_operands = [0, 1], reduction = [0, 0, 0, 0, 2], subgroup = [2, 1, 2, 8, 0], subgroup_m_count = 2 : i64, subgroup_n_count = 2 : i64, workgroup = [4, 1, 32, 256, 0]}>, translation_info = <pipeline = LLVMGPUTileAndFuse workgroup_size = [256, 1, 1] subgroup_size = 64, {gpu_pipeline_options = #iree_gpu.pipeline_options<prefetch_shared_memory = true, use_igemm_convolution = true>, llvm_func_attrs = {"amdgpu-waves-per-eu" = "2"}}>> -> !transform.any_param
    transform.yield %arg0, %0 : !transform.any_op, !transform.any_param
  }
  transform.named_sequence @module7426350141531559482_apply_op_config(%arg0: !transform.any_op {transform.readonly}, %arg1: !transform.any_param {transform.readonly}) {
    transform.annotate %arg0 "compilation_info" = %arg1 : !transform.any_op, !transform.any_param
    transform.yield
  }
  transform.named_sequence @"module-6425628932703912647_match_conv_2d_bfloat16_forward_128x24x48x384_nhwc_384x3x1x128_fhwc_nhwf_1x1s_1x0p_1x1d_3g$async_dispatch_0_conv_128x24x48x3x128x3x128_bf16xbf16xf32"(%arg0: !transform.any_op {transform.readonly}) -> (!transform.any_op, !transform.any_param) {
    %inputs, %outputs = transform.iree.match.cast_compatible_dag_from_root %arg0 {
    ^bb0(%arg1: tensor<128x26x48x3x128xbf16>, %arg2: tensor<3x128x3x128xbf16>, %arg3: tensor<128x24x48x3x128xf32>):
      %1 = linalg.generic {indexing_maps = [affine_map<(d0, d1, d2, d3, d4, d5, d6) -> (d0, d1 + d5, d2, d3, d6)>, affine_map<(d0, d1, d2, d3, d4, d5, d6) -> (d3, d4, d5, d6)>, affine_map<(d0, d1, d2, d3, d4, d5, d6) -> (d0, d1, d2, d3, d4)>], iterator_types = ["parallel", "parallel", "parallel", "parallel", "parallel", "reduction", "reduction"]} ins(%arg1, %arg2 : tensor<128x26x48x3x128xbf16>, tensor<3x128x3x128xbf16>) outs(%arg3 : tensor<128x24x48x3x128xf32>) {
      ^bb0(%in: bf16, %in_0: bf16, %out: f32):
        %2 = arith.extf %in : bf16 to f32
        %3 = arith.extf %in_0 : bf16 to f32
        %4 = arith.mulf %2, %3 : f32
        %5 = arith.addf %out, %4 : f32
        linalg.yield %5 : f32
      } -> tensor<128x24x48x3x128xf32>
    } : (!transform.any_op) -> (!transform.any_value, !transform.any_value)
    %0 = transform.param.constant #iree_codegen.compilation_info<lowering_config = #iree_gpu.lowering_config<{mma_kind = #iree_gpu.mma_layout<MFMA_F32_16x16x16_BF16>, promote_operands = [0, 1], reduction = [0, 0, 0, 0, 0, 2], subgroup = [8, 1, 1, 1, 4, 0], subgroup_m_count = 2 : i64, subgroup_n_count = 2 : i64, workgroup = [16, 1, 16, 1, 128, 0]}>, translation_info = <pipeline = LLVMGPUTileAndFuse workgroup_size = [256, 1, 1] subgroup_size = 64, {gpu_pipeline_options = #iree_gpu.pipeline_options<prefetch_shared_memory = true, use_igemm_convolution = true>, llvm_func_attrs = {"amdgpu-waves-per-eu" = "2"}}>> -> !transform.any_param
    transform.yield %arg0, %0 : !transform.any_op, !transform.any_param
  }
  transform.named_sequence @module7834922049502397065_apply_op_config(%arg0: !transform.any_op {transform.readonly}, %arg1: !transform.any_param {transform.readonly}) {
    transform.annotate %arg0 "compilation_info" = %arg1 : !transform.any_op, !transform.any_param
    transform.yield
  }
  transform.named_sequence @module1669037280268302384_match_conv_2d_bfloat16_forward_16x48x32x576_nhwc_576x3x3x576_fhwc_nhwf_1x1s_1x1p_1x1d_1g$async_dispatch_0_conv_16x48x32x576x3x3x576_bf16xbf16xf32(%arg0: !transform.any_op {transform.readonly}) -> (!transform.any_op, !transform.any_param) {
    %inputs, %outputs = transform.iree.match.cast_compatible_dag_from_root %arg0 {
    ^bb0(%arg1: tensor<16x50x34x576xbf16>, %arg2: tensor<576x3x3x576xbf16>, %arg3: tensor<16x48x32x576xf32>):
      %1 = linalg.generic {indexing_maps = [affine_map<(d0, d1, d2, d3, d4, d5, d6) -> (d0, d1 + d4, d2 + d5, d6)>, affine_map<(d0, d1, d2, d3, d4, d5, d6) -> (d3, d4, d5, d6)>, affine_map<(d0, d1, d2, d3, d4, d5, d6) -> (d0, d1, d2, d3)>], iterator_types = ["parallel", "parallel", "parallel", "parallel", "reduction", "reduction", "reduction"]} ins(%arg1, %arg2 : tensor<16x50x34x576xbf16>, tensor<576x3x3x576xbf16>) outs(%arg3 : tensor<16x48x32x576xf32>) {
      ^bb0(%in: bf16, %in_0: bf16, %out: f32):
        %2 = arith.extf %in : bf16 to f32
        %3 = arith.extf %in_0 : bf16 to f32
        %4 = arith.mulf %2, %3 : f32
        %5 = arith.addf %out, %4 : f32
        linalg.yield %5 : f32
      } -> tensor<16x48x32x576xf32>
    } : (!transform.any_op) -> (!transform.any_value, !transform.any_value)
    %0 = transform.param.constant #iree_codegen.compilation_info<lowering_config = #iree_gpu.lowering_config<{mma_kind = #iree_gpu.mma_layout<MFMA_F32_16x16x16_BF16>, promote_operands = [0, 1], reduction = [0, 0, 0, 0, 2], subgroup = [4, 1, 2, 3, 0], subgroup_m_count = 1 : i64, subgroup_n_count = 4 : i64, workgroup = [4, 1, 32, 192, 0]}>, translation_info = <pipeline = LLVMGPUTileAndFuse workgroup_size = [256, 1, 1] subgroup_size = 64, {gpu_pipeline_options = #iree_gpu.pipeline_options<prefetch_shared_memory = true, use_igemm_convolution = true>, llvm_func_attrs = {"amdgpu-waves-per-eu" = "2"}}>> -> !transform.any_param
    transform.yield %arg0, %0 : !transform.any_op, !transform.any_param
  }
  transform.named_sequence @"module-5346593499180439123_apply_op_config"(%arg0: !transform.any_op {transform.readonly}, %arg1: !transform.any_param {transform.readonly}) {
    transform.annotate %arg0 "compilation_info" = %arg1 : !transform.any_op, !transform.any_param
    transform.yield
  }
  transform.named_sequence @match_conv_2d_bfloat16_forward_16x48x32x96_nhwc_96x1x3x96_fhwc_nhwf_1x1s_0x2p_2x2d_1g$async_dispatch_0_conv_16x48x32x96x3x96_bf16xbf16xf32(%arg0: !transform.any_op {transform.readonly}) -> (!transform.any_op, !transform.any_param) {
    %inputs, %outputs = transform.iree.match.cast_compatible_dag_from_root %arg0 {
    ^bb0(%arg1: tensor<16x48x36x96xbf16>, %arg2: tensor<96x3x96xbf16>, %arg3: tensor<16x48x32x96xf32>):
      %1 = linalg.generic {indexing_maps = [affine_map<(d0, d1, d2, d3, d4, d5) -> (d0, d1, d2 + d4 * 2, d5)>, affine_map<(d0, d1, d2, d3, d4, d5) -> (d3, d4, d5)>, affine_map<(d0, d1, d2, d3, d4, d5) -> (d0, d1, d2, d3)>], iterator_types = ["parallel", "parallel", "parallel", "parallel", "reduction", "reduction"]} ins(%arg1, %arg2 : tensor<16x48x36x96xbf16>, tensor<96x3x96xbf16>) outs(%arg3 : tensor<16x48x32x96xf32>) {
      ^bb0(%in: bf16, %in_0: bf16, %out: f32):
        %2 = arith.extf %in : bf16 to f32
        %3 = arith.extf %in_0 : bf16 to f32
        %4 = arith.mulf %2, %3 : f32
        %5 = arith.addf %out, %4 : f32
        linalg.yield %5 : f32
      } -> tensor<16x48x32x96xf32>
    } : (!transform.any_op) -> (!transform.any_value, !transform.any_value)
    %0 = transform.param.constant #iree_codegen.compilation_info<lowering_config = #iree_gpu.lowering_config<{mma_kind = #iree_gpu.mma_layout<MFMA_F32_16x16x16_BF16>, promote_operands = [0, 1], reduction = [0, 0, 0, 0, 3], subgroup = [1, 4, 1, 2, 0], subgroup_m_count = 1 : i64, subgroup_n_count = 1 : i64, workgroup = [1, 4, 16, 32, 0]}>, translation_info = <pipeline = LLVMGPUTileAndFuse workgroup_size = [64, 1, 1] subgroup_size = 64, {gpu_pipeline_options = #iree_gpu.pipeline_options<prefetch_shared_memory = true, use_igemm_convolution = true>, llvm_func_attrs = {"amdgpu-waves-per-eu" = "2"}}>> -> !transform.any_param
    transform.yield %arg0, %0 : !transform.any_op, !transform.any_param
  }
  transform.named_sequence @module5802777366728024462_apply_op_config(%arg0: !transform.any_op {transform.readonly}, %arg1: !transform.any_param {transform.readonly}) {
    transform.annotate %arg0 "compilation_info" = %arg1 : !transform.any_op, !transform.any_param
    transform.yield
  }
  transform.named_sequence @match_conv_2d_bfloat16_forward_16x48x32x96_nhwc_96x1x3x96_fhwc_nhwf_1x1s_0x1p_1x1d_1g$async_dispatch_0_conv_16x48x32x96x3x96_bf16xbf16xf32(%arg0: !transform.any_op {transform.readonly}) -> (!transform.any_op, !transform.any_param) {
    %inputs, %outputs = transform.iree.match.cast_compatible_dag_from_root %arg0 {
    ^bb0(%arg1: tensor<16x48x34x96xbf16>, %arg2: tensor<96x3x96xbf16>, %arg3: tensor<16x48x32x96xf32>):
      %1 = linalg.generic {indexing_maps = [affine_map<(d0, d1, d2, d3, d4, d5) -> (d0, d1, d2 + d4, d5)>, affine_map<(d0, d1, d2, d3, d4, d5) -> (d3, d4, d5)>, affine_map<(d0, d1, d2, d3, d4, d5) -> (d0, d1, d2, d3)>], iterator_types = ["parallel", "parallel", "parallel", "parallel", "reduction", "reduction"]} ins(%arg1, %arg2 : tensor<16x48x34x96xbf16>, tensor<96x3x96xbf16>) outs(%arg3 : tensor<16x48x32x96xf32>) {
      ^bb0(%in: bf16, %in_0: bf16, %out: f32):
        %2 = arith.extf %in : bf16 to f32
        %3 = arith.extf %in_0 : bf16 to f32
        %4 = arith.mulf %2, %3 : f32
        %5 = arith.addf %out, %4 : f32
        linalg.yield %5 : f32
      } -> tensor<16x48x32x96xf32>
    } : (!transform.any_op) -> (!transform.any_value, !transform.any_value)
    %0 = transform.param.constant #iree_codegen.compilation_info<lowering_config = #iree_gpu.lowering_config<{mma_kind = #iree_gpu.mma_layout<MFMA_F32_16x16x16_BF16>, promote_operands = [0, 1], reduction = [0, 0, 0, 0, 6], subgroup = [1, 6, 2, 1, 0], subgroup_m_count = 1 : i64, subgroup_n_count = 3 : i64, workgroup = [1, 6, 32, 48, 0]}>, translation_info = <pipeline = LLVMGPUTileAndFuse workgroup_size = [192, 1, 1] subgroup_size = 64, {gpu_pipeline_options = #iree_gpu.pipeline_options<prefetch_shared_memory = true, use_igemm_convolution = true>, llvm_func_attrs = {"amdgpu-waves-per-eu" = "2"}}>> -> !transform.any_param
    transform.yield %arg0, %0 : !transform.any_op, !transform.any_param
  }
  transform.named_sequence @module7305728911802558079_apply_op_config(%arg0: !transform.any_op {transform.readonly}, %arg1: !transform.any_param {transform.readonly}) {
    transform.annotate %arg0 "compilation_info" = %arg1 : !transform.any_op, !transform.any_param
    transform.yield
  }
  transform.named_sequence @match_conv_2d_bfloat16_forward_16x48x32x96_nhwc_96x1x1x96_fhwc_nhwf_1x1s_0x0p_1x1d_1g$async_dispatch_0_matmul_like_24576x96x96_bf16xbf16xf32(%arg0: !transform.any_op {transform.readonly}) -> (!transform.any_op, !transform.any_param) {
    %inputs, %outputs = transform.iree.match.cast_compatible_dag_from_root %arg0 {
    ^bb0(%arg1: tensor<24576x96xbf16>, %arg2: tensor<96x96xbf16>, %arg3: tensor<24576x96xf32>):
      %1 = linalg.generic {indexing_maps = [affine_map<(d0, d1, d2) -> (d0, d2)>, affine_map<(d0, d1, d2) -> (d1, d2)>, affine_map<(d0, d1, d2) -> (d0, d1)>], iterator_types = ["parallel", "parallel", "reduction"]} ins(%arg1, %arg2 : tensor<24576x96xbf16>, tensor<96x96xbf16>) outs(%arg3 : tensor<24576x96xf32>) {
      ^bb0(%in: bf16, %in_0: bf16, %out: f32):
        %2 = arith.extf %in : bf16 to f32
        %3 = arith.extf %in_0 : bf16 to f32
        %4 = arith.mulf %2, %3 : f32
        %5 = arith.addf %out, %4 : f32
        linalg.yield %5 : f32
      } -> tensor<24576x96xf32>
    } : (!transform.any_op) -> (!transform.any_value, !transform.any_value)
    %0 = transform.param.constant #iree_codegen.compilation_info<lowering_config = #iree_gpu.lowering_config<{mma_kind = #iree_gpu.mma_layout<MFMA_F32_32x32x8_BF16>, promote_operands = [0, 1], reduction = [0, 0, 12], subgroup = [2, 3, 0], subgroup_m_count = 1 : i64, subgroup_n_count = 1 : i64, workgroup = [64, 96, 0]}>, translation_info = <pipeline = LLVMGPUTileAndFuse workgroup_size = [64, 1, 1] subgroup_size = 64, {gpu_pipeline_options = #iree_gpu.pipeline_options<prefetch_shared_memory = true>, llvm_func_attrs = {"amdgpu-waves-per-eu" = "2"}}>> -> !transform.any_param
    transform.yield %arg0, %0 : !transform.any_op, !transform.any_param
  }
  transform.named_sequence @module6979160480657067220_apply_op_config(%arg0: !transform.any_op {transform.readonly}, %arg1: !transform.any_param {transform.readonly}) {
    transform.annotate %arg0 "compilation_info" = %arg1 : !transform.any_op, !transform.any_param
    transform.yield
  }
  transform.named_sequence @match_conv_2d_bfloat16_forward_16x48x32x96_nhwc_48x1x1x96_fhwc_nhwf_1x1s_0x0p_1x1d_1g$async_dispatch_0_matmul_like_24576x48x96_bf16xbf16xf32(%arg0: !transform.any_op {transform.readonly}) -> (!transform.any_op, !transform.any_param) {
    %inputs, %outputs = transform.iree.match.cast_compatible_dag_from_root %arg0 {
    ^bb0(%arg1: tensor<24576x96xbf16>, %arg2: tensor<48x96xbf16>, %arg3: tensor<24576x48xf32>):
      %1 = linalg.generic {indexing_maps = [affine_map<(d0, d1, d2) -> (d0, d2)>, affine_map<(d0, d1, d2) -> (d1, d2)>, affine_map<(d0, d1, d2) -> (d0, d1)>], iterator_types = ["parallel", "parallel", "reduction"]} ins(%arg1, %arg2 : tensor<24576x96xbf16>, tensor<48x96xbf16>) outs(%arg3 : tensor<24576x48xf32>) {
      ^bb0(%in: bf16, %in_0: bf16, %out: f32):
        %2 = arith.extf %in : bf16 to f32
        %3 = arith.extf %in_0 : bf16 to f32
        %4 = arith.mulf %2, %3 : f32
        %5 = arith.addf %out, %4 : f32
        linalg.yield %5 : f32
      } -> tensor<24576x48xf32>
    } : (!transform.any_op) -> (!transform.any_value, !transform.any_value)
    %0 = transform.param.constant #iree_codegen.compilation_info<lowering_config = #iree_gpu.lowering_config<{mma_kind = #iree_gpu.mma_layout<MFMA_F32_16x16x16_BF16>, promote_operands = [0, 1], reduction = [0, 0, 2], subgroup = [3, 1, 0], subgroup_m_count = 1 : i64, subgroup_n_count = 3 : i64, workgroup = [48, 48, 0]}>, translation_info = <pipeline = LLVMGPUTileAndFuse workgroup_size = [192, 1, 1] subgroup_size = 64, {gpu_pipeline_options = #iree_gpu.pipeline_options<prefetch_shared_memory = true>, llvm_func_attrs = {"amdgpu-waves-per-eu" = "2"}}>> -> !transform.any_param
    transform.yield %arg0, %0 : !transform.any_op, !transform.any_param
  }
  transform.named_sequence @"module-1545887152392129862_apply_op_config"(%arg0: !transform.any_op {transform.readonly}, %arg1: !transform.any_param {transform.readonly}) {
    transform.annotate %arg0 "compilation_info" = %arg1 : !transform.any_op, !transform.any_param
    transform.yield
  }
  transform.named_sequence @match_conv_2d_bfloat16_forward_16x48x32x96_nhwc_288x1x1x96_fhwc_nhwf_2x2s_0x0p_1x1d_1g$async_dispatch_0_matmul_like_16x24x16x288x96_bf16xbf16xf32(%arg0: !transform.any_op {transform.readonly}) -> (!transform.any_op, !transform.any_param) {
    %inputs, %outputs = transform.iree.match.cast_compatible_dag_from_root %arg0 {
    ^bb0(%arg1: tensor<16x24x16x96xbf16>, %arg2: tensor<288x96xbf16>, %arg3: tensor<16x24x16x288xf32>):
      %1 = linalg.generic {indexing_maps = [affine_map<(d0, d1, d2, d3, d4) -> (d0, d1, d2, d4)>, affine_map<(d0, d1, d2, d3, d4) -> (d3, d4)>, affine_map<(d0, d1, d2, d3, d4) -> (d0, d1, d2, d3)>], iterator_types = ["parallel", "parallel", "parallel", "parallel", "reduction"]} ins(%arg1, %arg2 : tensor<16x24x16x96xbf16>, tensor<288x96xbf16>) outs(%arg3 : tensor<16x24x16x288xf32>) {
      ^bb0(%in: bf16, %in_0: bf16, %out: f32):
        %2 = arith.extf %in : bf16 to f32
        %3 = arith.extf %in_0 : bf16 to f32
        %4 = arith.mulf %2, %3 : f32
        %5 = arith.addf %out, %4 : f32
        linalg.yield %5 : f32
      } -> tensor<16x24x16x288xf32>
    } : (!transform.any_op) -> (!transform.any_value, !transform.any_value)
    %0 = transform.param.constant #iree_codegen.compilation_info<lowering_config = #iree_gpu.lowering_config<{mma_kind = #iree_gpu.mma_layout<MFMA_F32_16x16x16_BF16>, promote_operands = [0, 1], reduction = [0, 0, 0, 0, 6], subgroup = [2, 1, 1, 1, 0], subgroup_m_count = 3 : i64, subgroup_n_count = 2 : i64, workgroup = [2, 3, 16, 32, 0]}>, translation_info = <pipeline = LLVMGPUTileAndFuse workgroup_size = [384, 1, 1] subgroup_size = 64, {gpu_pipeline_options = #iree_gpu.pipeline_options<prefetch_shared_memory = true>, llvm_func_attrs = {"amdgpu-waves-per-eu" = "2"}}>> -> !transform.any_param
    transform.yield %arg0, %0 : !transform.any_op, !transform.any_param
  }
  transform.named_sequence @module1140498713111542990_apply_op_config(%arg0: !transform.any_op {transform.readonly}, %arg1: !transform.any_param {transform.readonly}) {
    transform.annotate %arg0 "compilation_info" = %arg1 : !transform.any_op, !transform.any_param
    transform.yield
  }
  transform.named_sequence @match_conv_2d_bfloat16_forward_16x48x32x96_nhwc_288x1x1x96_fhwc_nhwf_1x1s_0x0p_1x1d_1g$async_dispatch_0_matmul_like_24576x288x96_bf16xbf16xf32(%arg0: !transform.any_op {transform.readonly}) -> (!transform.any_op, !transform.any_param) {
    %inputs, %outputs = transform.iree.match.cast_compatible_dag_from_root %arg0 {
    ^bb0(%arg1: tensor<24576x96xbf16>, %arg2: tensor<288x96xbf16>, %arg3: tensor<24576x288xf32>):
      %1 = linalg.generic {indexing_maps = [affine_map<(d0, d1, d2) -> (d0, d2)>, affine_map<(d0, d1, d2) -> (d1, d2)>, affine_map<(d0, d1, d2) -> (d0, d1)>], iterator_types = ["parallel", "parallel", "reduction"]} ins(%arg1, %arg2 : tensor<24576x96xbf16>, tensor<288x96xbf16>) outs(%arg3 : tensor<24576x288xf32>) {
      ^bb0(%in: bf16, %in_0: bf16, %out: f32):
        %2 = arith.extf %in : bf16 to f32
        %3 = arith.extf %in_0 : bf16 to f32
        %4 = arith.mulf %2, %3 : f32
        %5 = arith.addf %out, %4 : f32
        linalg.yield %5 : f32
      } -> tensor<24576x288xf32>
    } : (!transform.any_op) -> (!transform.any_value, !transform.any_value)
    %0 = transform.param.constant #iree_codegen.compilation_info<lowering_config = #iree_gpu.lowering_config<{mma_kind = #iree_gpu.mma_layout<MFMA_F32_16x16x16_BF16>, promote_operands = [0, 1], reduction = [0, 0, 2], subgroup = [2, 6, 0], subgroup_m_count = 1 : i64, subgroup_n_count = 1 : i64, workgroup = [32, 96, 0]}>, translation_info = <pipeline = LLVMGPUTileAndFuse workgroup_size = [64, 1, 1] subgroup_size = 64, {gpu_pipeline_options = #iree_gpu.pipeline_options<prefetch_shared_memory = true>, llvm_func_attrs = {"amdgpu-waves-per-eu" = "2"}}>> -> !transform.any_param
    transform.yield %arg0, %0 : !transform.any_op, !transform.any_param
  }
  transform.named_sequence @"module-6012110716509894178_apply_op_config"(%arg0: !transform.any_op {transform.readonly}, %arg1: !transform.any_param {transform.readonly}) {
    transform.annotate %arg0 "compilation_info" = %arg1 : !transform.any_op, !transform.any_param
    transform.yield
  }
  transform.named_sequence @match_conv_2d_bfloat16_forward_16x48x32x96_nhwc_192x2x2x96_fhwc_nhwf_2x2s_0x0p_1x1d_1g$async_dispatch_0_conv_16x24x16x192x2x2x96_bf16xbf16xf32(%arg0: !transform.any_op {transform.readonly}) -> (!transform.any_op, !transform.any_param) {
    %inputs, %outputs = transform.iree.match.cast_compatible_dag_from_root %arg0 {
    ^bb0(%arg1: tensor<16x48x32x96xbf16>, %arg2: tensor<192x2x2x96xbf16>, %arg3: tensor<16x24x16x192xf32>):
      %1 = linalg.generic {indexing_maps = [affine_map<(d0, d1, d2, d3, d4, d5, d6) -> (d0, d1 * 2 + d4, d2 * 2 + d5, d6)>, affine_map<(d0, d1, d2, d3, d4, d5, d6) -> (d3, d4, d5, d6)>, affine_map<(d0, d1, d2, d3, d4, d5, d6) -> (d0, d1, d2, d3)>], iterator_types = ["parallel", "parallel", "parallel", "parallel", "reduction", "reduction", "reduction"]} ins(%arg1, %arg2 : tensor<16x48x32x96xbf16>, tensor<192x2x2x96xbf16>) outs(%arg3 : tensor<16x24x16x192xf32>) {
      ^bb0(%in: bf16, %in_0: bf16, %out: f32):
        %2 = arith.extf %in : bf16 to f32
        %3 = arith.extf %in_0 : bf16 to f32
        %4 = arith.mulf %2, %3 : f32
        %5 = arith.addf %out, %4 : f32
        linalg.yield %5 : f32
      } -> tensor<16x24x16x192xf32>
    } : (!transform.any_op) -> (!transform.any_value, !transform.any_value)
    %0 = transform.param.constant #iree_codegen.compilation_info<lowering_config = #iree_gpu.lowering_config<{mma_kind = #iree_gpu.mma_layout<MFMA_F32_16x16x16_BF16>, promote_operands = [0, 1], reduction = [0, 0, 0, 0, 8], subgroup = [2, 1, 1, 2, 0], subgroup_m_count = 4 : i64, subgroup_n_count = 2 : i64, workgroup = [8, 1, 16, 64, 0]}>, translation_info = <pipeline = LLVMGPUTileAndFuse workgroup_size = [512, 1, 1] subgroup_size = 64, {gpu_pipeline_options = #iree_gpu.pipeline_options<prefetch_shared_memory = true, use_igemm_convolution = true>, llvm_func_attrs = {"amdgpu-waves-per-eu" = "2"}}>> -> !transform.any_param
    transform.yield %arg0, %0 : !transform.any_op, !transform.any_param
  }
  transform.named_sequence @"module-8950407434555634540_apply_op_config"(%arg0: !transform.any_op {transform.readonly}, %arg1: !transform.any_param {transform.readonly}) {
    transform.annotate %arg0 "compilation_info" = %arg1 : !transform.any_op, !transform.any_param
    transform.yield
  }
  transform.named_sequence @match_conv_2d_bfloat16_forward_16x24x16x96_nhwc_96x3x1x96_fhwc_nhwf_1x1s_4x0p_4x4d_1g$async_dispatch_0_conv_16x24x16x96x3x96_bf16xbf16xf32(%arg0: !transform.any_op {transform.readonly}) -> (!transform.any_op, !transform.any_param) {
    %inputs, %outputs = transform.iree.match.cast_compatible_dag_from_root %arg0 {
    ^bb0(%arg1: tensor<16x32x16x96xbf16>, %arg2: tensor<96x3x96xbf16>, %arg3: tensor<16x24x16x96xf32>):
      %1 = linalg.generic {indexing_maps = [affine_map<(d0, d1, d2, d3, d4, d5) -> (d0, d1 + d4 * 4, d2, d5)>, affine_map<(d0, d1, d2, d3, d4, d5) -> (d3, d4, d5)>, affine_map<(d0, d1, d2, d3, d4, d5) -> (d0, d1, d2, d3)>], iterator_types = ["parallel", "parallel", "parallel", "parallel", "reduction", "reduction"]} ins(%arg1, %arg2 : tensor<16x32x16x96xbf16>, tensor<96x3x96xbf16>) outs(%arg3 : tensor<16x24x16x96xf32>) {
      ^bb0(%in: bf16, %in_0: bf16, %out: f32):
        %2 = arith.extf %in : bf16 to f32
        %3 = arith.extf %in_0 : bf16 to f32
        %4 = arith.mulf %2, %3 : f32
        %5 = arith.addf %out, %4 : f32
        linalg.yield %5 : f32
      } -> tensor<16x24x16x96xf32>
    } : (!transform.any_op) -> (!transform.any_value, !transform.any_value)
    %0 = transform.param.constant #iree_codegen.compilation_info<lowering_config = #iree_gpu.lowering_config<{mma_kind = #iree_gpu.mma_layout<MFMA_F32_16x16x16_BF16>, promote_operands = [0, 1], reduction = [0, 0, 0, 0, 2], subgroup = [1, 4, 1, 2, 0], subgroup_m_count = 1 : i64, subgroup_n_count = 1 : i64, workgroup = [1, 4, 16, 32, 0]}>, translation_info = <pipeline = LLVMGPUTileAndFuse workgroup_size = [64, 1, 1] subgroup_size = 64, {gpu_pipeline_options = #iree_gpu.pipeline_options<prefetch_shared_memory = true, use_igemm_convolution = true>, llvm_func_attrs = {"amdgpu-waves-per-eu" = "2"}}>> -> !transform.any_param
    transform.yield %arg0, %0 : !transform.any_op, !transform.any_param
  }
  transform.named_sequence @module4308463292893212318_apply_op_config(%arg0: !transform.any_op {transform.readonly}, %arg1: !transform.any_param {transform.readonly}) {
    transform.annotate %arg0 "compilation_info" = %arg1 : !transform.any_op, !transform.any_param
    transform.yield
  }
  transform.named_sequence @match_conv_2d_bfloat16_forward_16x24x16x96_nhwc_96x3x1x96_fhwc_nhwf_1x1s_2x0p_2x2d_1g$async_dispatch_0_conv_16x24x16x96x3x96_bf16xbf16xf32(%arg0: !transform.any_op {transform.readonly}) -> (!transform.any_op, !transform.any_param) {
    %inputs, %outputs = transform.iree.match.cast_compatible_dag_from_root %arg0 {
    ^bb0(%arg1: tensor<16x28x16x96xbf16>, %arg2: tensor<96x3x96xbf16>, %arg3: tensor<16x24x16x96xf32>):
      %1 = linalg.generic {indexing_maps = [affine_map<(d0, d1, d2, d3, d4, d5) -> (d0, d1 + d4 * 2, d2, d5)>, affine_map<(d0, d1, d2, d3, d4, d5) -> (d3, d4, d5)>, affine_map<(d0, d1, d2, d3, d4, d5) -> (d0, d1, d2, d3)>], iterator_types = ["parallel", "parallel", "parallel", "parallel", "reduction", "reduction"]} ins(%arg1, %arg2 : tensor<16x28x16x96xbf16>, tensor<96x3x96xbf16>) outs(%arg3 : tensor<16x24x16x96xf32>) {
      ^bb0(%in: bf16, %in_0: bf16, %out: f32):
        %2 = arith.extf %in : bf16 to f32
        %3 = arith.extf %in_0 : bf16 to f32
        %4 = arith.mulf %2, %3 : f32
        %5 = arith.addf %out, %4 : f32
        linalg.yield %5 : f32
      } -> tensor<16x24x16x96xf32>
    } : (!transform.any_op) -> (!transform.any_value, !transform.any_value)
    %0 = transform.param.constant #iree_codegen.compilation_info<lowering_config = #iree_gpu.lowering_config<{mma_kind = #iree_gpu.mma_layout<MFMA_F32_16x16x16_BF16>, promote_operands = [0, 1], reduction = [0, 0, 0, 0, 2], subgroup = [1, 2, 1, 2, 0], subgroup_m_count = 1 : i64, subgroup_n_count = 1 : i64, workgroup = [1, 2, 16, 32, 0]}>, translation_info = <pipeline = LLVMGPUTileAndFuse workgroup_size = [64, 1, 1] subgroup_size = 64, {gpu_pipeline_options = #iree_gpu.pipeline_options<prefetch_shared_memory = true, use_igemm_convolution = true>, llvm_func_attrs = {"amdgpu-waves-per-eu" = "2"}}>> -> !transform.any_param
    transform.yield %arg0, %0 : !transform.any_op, !transform.any_param
  }
  transform.named_sequence @"module-901678688851771580_apply_op_config"(%arg0: !transform.any_op {transform.readonly}, %arg1: !transform.any_param {transform.readonly}) {
    transform.annotate %arg0 "compilation_info" = %arg1 : !transform.any_op, !transform.any_param
    transform.yield
  }
  transform.named_sequence @match_conv_2d_bfloat16_forward_16x24x16x96_nhwc_96x3x1x96_fhwc_nhwf_1x1s_1x0p_1x1d_1g$async_dispatch_0_conv_16x24x16x96x3x96_bf16xbf16xf32(%arg0: !transform.any_op {transform.readonly}) -> (!transform.any_op, !transform.any_param) {
    %inputs, %outputs = transform.iree.match.cast_compatible_dag_from_root %arg0 {
    ^bb0(%arg1: tensor<16x26x16x96xbf16>, %arg2: tensor<96x3x96xbf16>, %arg3: tensor<16x24x16x96xf32>):
      %1 = linalg.generic {indexing_maps = [affine_map<(d0, d1, d2, d3, d4, d5) -> (d0, d1 + d4, d2, d5)>, affine_map<(d0, d1, d2, d3, d4, d5) -> (d3, d4, d5)>, affine_map<(d0, d1, d2, d3, d4, d5) -> (d0, d1, d2, d3)>], iterator_types = ["parallel", "parallel", "parallel", "parallel", "reduction", "reduction"]} ins(%arg1, %arg2 : tensor<16x26x16x96xbf16>, tensor<96x3x96xbf16>) outs(%arg3 : tensor<16x24x16x96xf32>) {
      ^bb0(%in: bf16, %in_0: bf16, %out: f32):
        %2 = arith.extf %in : bf16 to f32
        %3 = arith.extf %in_0 : bf16 to f32
        %4 = arith.mulf %2, %3 : f32
        %5 = arith.addf %out, %4 : f32
        linalg.yield %5 : f32
      } -> tensor<16x24x16x96xf32>
    } : (!transform.any_op) -> (!transform.any_value, !transform.any_value)
    %0 = transform.param.constant #iree_codegen.compilation_info<lowering_config = #iree_gpu.lowering_config<{mma_kind = #iree_gpu.mma_layout<MFMA_F32_16x16x16_BF16>, promote_operands = [0, 1], reduction = [0, 0, 0, 0, 6], subgroup = [2, 1, 1, 6, 0], subgroup_m_count = 2 : i64, subgroup_n_count = 1 : i64, workgroup = [4, 1, 16, 96, 0]}>, translation_info = <pipeline = LLVMGPUTileAndFuse workgroup_size = [128, 1, 1] subgroup_size = 64, {gpu_pipeline_options = #iree_gpu.pipeline_options<prefetch_shared_memory = true, use_igemm_convolution = true>, llvm_func_attrs = {"amdgpu-waves-per-eu" = "2"}}>> -> !transform.any_param
    transform.yield %arg0, %0 : !transform.any_op, !transform.any_param
  }
  transform.named_sequence @module5757204214897077717_apply_op_config(%arg0: !transform.any_op {transform.readonly}, %arg1: !transform.any_param {transform.readonly}) {
    transform.annotate %arg0 "compilation_info" = %arg1 : !transform.any_op, !transform.any_param
    transform.yield
  }
  transform.named_sequence @match_conv_2d_bfloat16_forward_16x24x16x96_nhwc_96x1x3x96_fhwc_nhwf_1x1s_0x4p_4x4d_1g$async_dispatch_0_conv_16x24x16x96x3x96_bf16xbf16xf32(%arg0: !transform.any_op {transform.readonly}) -> (!transform.any_op, !transform.any_param) {
    %inputs, %outputs = transform.iree.match.cast_compatible_dag_from_root %arg0 {
    ^bb0(%arg1: tensor<16x24x24x96xbf16>, %arg2: tensor<96x3x96xbf16>, %arg3: tensor<16x24x16x96xf32>):
      %1 = linalg.generic {indexing_maps = [affine_map<(d0, d1, d2, d3, d4, d5) -> (d0, d1, d2 + d4 * 4, d5)>, affine_map<(d0, d1, d2, d3, d4, d5) -> (d3, d4, d5)>, affine_map<(d0, d1, d2, d3, d4, d5) -> (d0, d1, d2, d3)>], iterator_types = ["parallel", "parallel", "parallel", "parallel", "reduction", "reduction"]} ins(%arg1, %arg2 : tensor<16x24x24x96xbf16>, tensor<96x3x96xbf16>) outs(%arg3 : tensor<16x24x16x96xf32>) {
      ^bb0(%in: bf16, %in_0: bf16, %out: f32):
        %2 = arith.extf %in : bf16 to f32
        %3 = arith.extf %in_0 : bf16 to f32
        %4 = arith.mulf %2, %3 : f32
        %5 = arith.addf %out, %4 : f32
        linalg.yield %5 : f32
      } -> tensor<16x24x16x96xf32>
    } : (!transform.any_op) -> (!transform.any_value, !transform.any_value)
    %0 = transform.param.constant #iree_codegen.compilation_info<lowering_config = #iree_gpu.lowering_config<{mma_kind = #iree_gpu.mma_layout<MFMA_F32_16x16x16_BF16>, promote_operands = [0, 1], reduction = [0, 0, 0, 0, 3], subgroup = [4, 1, 1, 2, 0], subgroup_m_count = 1 : i64, subgroup_n_count = 3 : i64, workgroup = [4, 1, 16, 96, 0]}>, translation_info = <pipeline = LLVMGPUTileAndFuse workgroup_size = [192, 1, 1] subgroup_size = 64, {gpu_pipeline_options = #iree_gpu.pipeline_options<prefetch_shared_memory = true, use_igemm_convolution = true>, llvm_func_attrs = {"amdgpu-waves-per-eu" = "2"}}>> -> !transform.any_param
    transform.yield %arg0, %0 : !transform.any_op, !transform.any_param
  }
  transform.named_sequence @module6755737478891846325_apply_op_config(%arg0: !transform.any_op {transform.readonly}, %arg1: !transform.any_param {transform.readonly}) {
    transform.annotate %arg0 "compilation_info" = %arg1 : !transform.any_op, !transform.any_param
    transform.yield
  }
  transform.named_sequence @match_conv_2d_bfloat16_forward_16x24x16x96_nhwc_96x1x3x96_fhwc_nhwf_1x1s_0x2p_2x2d_1g$async_dispatch_0_conv_16x24x16x96x3x96_bf16xbf16xf32(%arg0: !transform.any_op {transform.readonly}) -> (!transform.any_op, !transform.any_param) {
    %inputs, %outputs = transform.iree.match.cast_compatible_dag_from_root %arg0 {
    ^bb0(%arg1: tensor<16x24x20x96xbf16>, %arg2: tensor<96x3x96xbf16>, %arg3: tensor<16x24x16x96xf32>):
      %1 = linalg.generic {indexing_maps = [affine_map<(d0, d1, d2, d3, d4, d5) -> (d0, d1, d2 + d4 * 2, d5)>, affine_map<(d0, d1, d2, d3, d4, d5) -> (d3, d4, d5)>, affine_map<(d0, d1, d2, d3, d4, d5) -> (d0, d1, d2, d3)>], iterator_types = ["parallel", "parallel", "parallel", "parallel", "reduction", "reduction"]} ins(%arg1, %arg2 : tensor<16x24x20x96xbf16>, tensor<96x3x96xbf16>) outs(%arg3 : tensor<16x24x16x96xf32>) {
      ^bb0(%in: bf16, %in_0: bf16, %out: f32):
        %2 = arith.extf %in : bf16 to f32
        %3 = arith.extf %in_0 : bf16 to f32
        %4 = arith.mulf %2, %3 : f32
        %5 = arith.addf %out, %4 : f32
        linalg.yield %5 : f32
      } -> tensor<16x24x16x96xf32>
    } : (!transform.any_op) -> (!transform.any_value, !transform.any_value)
    %0 = transform.param.constant #iree_codegen.compilation_info<lowering_config = #iree_gpu.lowering_config<{mma_kind = #iree_gpu.mma_layout<MFMA_F32_16x16x16_BF16>, promote_operands = [0, 1], reduction = [0, 0, 0, 0, 2], subgroup = [1, 2, 1, 1, 0], subgroup_m_count = 1 : i64, subgroup_n_count = 2 : i64, workgroup = [1, 2, 16, 32, 0]}>, translation_info = <pipeline = LLVMGPUTileAndFuse workgroup_size = [128, 1, 1] subgroup_size = 64, {gpu_pipeline_options = #iree_gpu.pipeline_options<prefetch_shared_memory = true, use_igemm_convolution = true>, llvm_func_attrs = {"amdgpu-waves-per-eu" = "2"}}>> -> !transform.any_param
    transform.yield %arg0, %0 : !transform.any_op, !transform.any_param
  }
  transform.named_sequence @module7294564384001904877_apply_op_config(%arg0: !transform.any_op {transform.readonly}, %arg1: !transform.any_param {transform.readonly}) {
    transform.annotate %arg0 "compilation_info" = %arg1 : !transform.any_op, !transform.any_param
    transform.yield
  }
  transform.named_sequence @match_conv_2d_bfloat16_forward_16x24x16x96_nhwc_96x1x3x96_fhwc_nhwf_1x1s_0x1p_1x1d_1g$async_dispatch_0_conv_16x24x16x96x3x96_bf16xbf16xf32(%arg0: !transform.any_op {transform.readonly}) -> (!transform.any_op, !transform.any_param) {
    %inputs, %outputs = transform.iree.match.cast_compatible_dag_from_root %arg0 {
    ^bb0(%arg1: tensor<16x24x18x96xbf16>, %arg2: tensor<96x3x96xbf16>, %arg3: tensor<16x24x16x96xf32>):
      %1 = linalg.generic {indexing_maps = [affine_map<(d0, d1, d2, d3, d4, d5) -> (d0, d1, d2 + d4, d5)>, affine_map<(d0, d1, d2, d3, d4, d5) -> (d3, d4, d5)>, affine_map<(d0, d1, d2, d3, d4, d5) -> (d0, d1, d2, d3)>], iterator_types = ["parallel", "parallel", "parallel", "parallel", "reduction", "reduction"]} ins(%arg1, %arg2 : tensor<16x24x18x96xbf16>, tensor<96x3x96xbf16>) outs(%arg3 : tensor<16x24x16x96xf32>) {
      ^bb0(%in: bf16, %in_0: bf16, %out: f32):
        %2 = arith.extf %in : bf16 to f32
        %3 = arith.extf %in_0 : bf16 to f32
        %4 = arith.mulf %2, %3 : f32
        %5 = arith.addf %out, %4 : f32
        linalg.yield %5 : f32
      } -> tensor<16x24x16x96xf32>
    } : (!transform.any_op) -> (!transform.any_value, !transform.any_value)
    %0 = transform.param.constant #iree_codegen.compilation_info<lowering_config = #iree_gpu.lowering_config<{mma_kind = #iree_gpu.mma_layout<MFMA_F32_16x16x16_BF16>, promote_operands = [0, 1], reduction = [0, 0, 0, 0, 6], subgroup = [1, 1, 1, 6, 0], subgroup_m_count = 2 : i64, subgroup_n_count = 1 : i64, workgroup = [1, 2, 16, 96, 0]}>, translation_info = <pipeline = LLVMGPUTileAndFuse workgroup_size = [128, 1, 1] subgroup_size = 64, {gpu_pipeline_options = #iree_gpu.pipeline_options<prefetch_shared_memory = true, use_igemm_convolution = true>, llvm_func_attrs = {"amdgpu-waves-per-eu" = "2"}}>> -> !transform.any_param
    transform.yield %arg0, %0 : !transform.any_op, !transform.any_param
  }
  transform.named_sequence @module6549106516543380535_apply_op_config(%arg0: !transform.any_op {transform.readonly}, %arg1: !transform.any_param {transform.readonly}) {
    transform.annotate %arg0 "compilation_info" = %arg1 : !transform.any_op, !transform.any_param
    transform.yield
  }
  transform.named_sequence @module7426350141531559482_match_conv_2d_bfloat16_forward_16x48x32x768_nhwc_2048x3x3x768_fhwc_nhwf_1x1s_1x1p_1x1d_1g$async_dispatch_0_conv_16x48x32x2048x3x3x768_bf16xbf16xf32(%arg0: !transform.any_op {transform.readonly}) -> (!transform.any_op, !transform.any_param) {
    %inputs, %outputs = transform.iree.match.cast_compatible_dag_from_root %arg0 {
    ^bb0(%arg1: tensor<16x50x34x768xbf16>, %arg2: tensor<2048x3x3x768xbf16>, %arg3: tensor<16x48x32x2048xf32>):
      %1 = linalg.generic {indexing_maps = [affine_map<(d0, d1, d2, d3, d4, d5, d6) -> (d0, d1 + d4, d2 + d5, d6)>, affine_map<(d0, d1, d2, d3, d4, d5, d6) -> (d3, d4, d5, d6)>, affine_map<(d0, d1, d2, d3, d4, d5, d6) -> (d0, d1, d2, d3)>], iterator_types = ["parallel", "parallel", "parallel", "parallel", "reduction", "reduction", "reduction"]} ins(%arg1, %arg2 : tensor<16x50x34x768xbf16>, tensor<2048x3x3x768xbf16>) outs(%arg3 : tensor<16x48x32x2048xf32>) {
      ^bb0(%in: bf16, %in_0: bf16, %out: f32):
        %2 = arith.extf %in : bf16 to f32
        %3 = arith.extf %in_0 : bf16 to f32
        %4 = arith.mulf %2, %3 : f32
        %5 = arith.addf %out, %4 : f32
        linalg.yield %5 : f32
      } -> tensor<16x48x32x2048xf32>
    } : (!transform.any_op) -> (!transform.any_value, !transform.any_value)
    %0 = transform.param.constant #iree_codegen.compilation_info<lowering_config = #iree_gpu.lowering_config<{mma_kind = #iree_gpu.mma_layout<MFMA_F32_16x16x16_BF16>, promote_operands = [0, 1], reduction = [0, 0, 0, 0, 2], subgroup = [2, 1, 2, 8, 0], subgroup_m_count = 4 : i64, subgroup_n_count = 2 : i64, workgroup = [8, 1, 32, 256, 0]}>, translation_info = <pipeline = LLVMGPUTileAndFuse workgroup_size = [512, 1, 1] subgroup_size = 64, {gpu_pipeline_options = #iree_gpu.pipeline_options<prefetch_shared_memory = true, use_igemm_convolution = true>, llvm_func_attrs = {"amdgpu-waves-per-eu" = "2"}}>> -> !transform.any_param
    transform.yield %arg0, %0 : !transform.any_op, !transform.any_param
  }
  transform.named_sequence @module4826834601099627801_apply_op_config(%arg0: !transform.any_op {transform.readonly}, %arg1: !transform.any_param {transform.readonly}) {
    transform.annotate %arg0 "compilation_info" = %arg1 : !transform.any_op, !transform.any_param
    transform.yield
  }
  transform.named_sequence @module4378881155291204668_match_conv_2d_bfloat16_forward_16x48x32x672_nhwc_576x1x1x672_fhwc_nhwf_1x1s_0x0p_1x1d_1g$async_dispatch_0_matmul_like_24576x576x672_bf16xbf16xf32(%arg0: !transform.any_op {transform.readonly}) -> (!transform.any_op, !transform.any_param) {
    %inputs, %outputs = transform.iree.match.cast_compatible_dag_from_root %arg0 {
    ^bb0(%arg1: tensor<24576x672xbf16>, %arg2: tensor<576x672xbf16>, %arg3: tensor<24576x576xf32>):
      %1 = linalg.generic {indexing_maps = [affine_map<(d0, d1, d2) -> (d0, d2)>, affine_map<(d0, d1, d2) -> (d1, d2)>, affine_map<(d0, d1, d2) -> (d0, d1)>], iterator_types = ["parallel", "parallel", "reduction"]} ins(%arg1, %arg2 : tensor<24576x672xbf16>, tensor<576x672xbf16>) outs(%arg3 : tensor<24576x576xf32>) {
      ^bb0(%in: bf16, %in_0: bf16, %out: f32):
        %2 = arith.extf %in : bf16 to f32
        %3 = arith.extf %in_0 : bf16 to f32
        %4 = arith.mulf %2, %3 : f32
        %5 = arith.addf %out, %4 : f32
        linalg.yield %5 : f32
      } -> tensor<24576x576xf32>
    } : (!transform.any_op) -> (!transform.any_value, !transform.any_value)
    %0 = transform.param.constant #iree_codegen.compilation_info<lowering_config = #iree_gpu.lowering_config<{mma_kind = #iree_gpu.mma_layout<MFMA_F32_32x32x8_BF16>, promote_operands = [0, 1], reduction = [0, 0, 4], subgroup = [3, 3, 0], subgroup_m_count = 2 : i64, subgroup_n_count = 3 : i64, workgroup = [192, 288, 0]}>, translation_info = <pipeline = LLVMGPUTileAndFuse workgroup_size = [384, 1, 1] subgroup_size = 64, {gpu_pipeline_options = #iree_gpu.pipeline_options<prefetch_shared_memory = true>, llvm_func_attrs = {"amdgpu-waves-per-eu" = "2"}}>> -> !transform.any_param
    transform.yield %arg0, %0 : !transform.any_op, !transform.any_param
  }
  transform.named_sequence @module3271123471683318830_apply_op_config(%arg0: !transform.any_op {transform.readonly}, %arg1: !transform.any_param {transform.readonly}) {
    transform.annotate %arg0 "compilation_info" = %arg1 : !transform.any_op, !transform.any_param
    transform.yield
  }
  transform.named_sequence @match_conv_2d_bfloat16_forward_16x75x75x64_nhwc_64x3x3x64_fhwc_nhwf_2x2s_1x1p_1x1d_1g$async_dispatch_0_conv_16x38x38x64x3x3x64_bf16xbf16xf32(%arg0: !transform.any_op {transform.readonly}) -> (!transform.any_op, !transform.any_param) {
    %inputs, %outputs = transform.iree.match.cast_compatible_dag_from_root %arg0 {
    ^bb0(%arg1: tensor<16x77x77x64xbf16>, %arg2: tensor<64x3x3x64xbf16>, %arg3: tensor<16x38x38x64xf32>):
      %1 = linalg.generic {indexing_maps = [affine_map<(d0, d1, d2, d3, d4, d5, d6) -> (d0, d1 * 2 + d4, d2 * 2 + d5, d6)>, affine_map<(d0, d1, d2, d3, d4, d5, d6) -> (d3, d4, d5, d6)>, affine_map<(d0, d1, d2, d3, d4, d5, d6) -> (d0, d1, d2, d3)>], iterator_types = ["parallel", "parallel", "parallel", "parallel", "reduction", "reduction", "reduction"]} ins(%arg1, %arg2 : tensor<16x77x77x64xbf16>, tensor<64x3x3x64xbf16>) outs(%arg3 : tensor<16x38x38x64xf32>) {
      ^bb0(%in: bf16, %in_0: bf16, %out: f32):
        %2 = arith.extf %in : bf16 to f32
        %3 = arith.extf %in_0 : bf16 to f32
        %4 = arith.mulf %2, %3 : f32
        %5 = arith.addf %out, %4 : f32
        linalg.yield %5 : f32
      } -> tensor<16x38x38x64xf32>
    } : (!transform.any_op) -> (!transform.any_value, !transform.any_value)
    %0 = transform.param.constant #iree_codegen.compilation_info<lowering_config = #iree_gpu.lowering_config<{mma_kind = #iree_gpu.mma_layout<MFMA_F32_16x16x16_BF16>, padding = [2, 2, 16, 64, 64], promote_operands = [0, 1], reduction = [0, 0, 0, 0, 4], subgroup = [2, 2, 1, 1, 0], subgroup_m_count = 1 : i64, subgroup_n_count = 4 : i64, workgroup = [2, 2, 16, 64, 0]}>, translation_info = <pipeline = LLVMGPUTileAndFuse workgroup_size = [256, 1, 1] subgroup_size = 64, {gpu_pipeline_options = #iree_gpu.pipeline_options<prefetch_shared_memory = true, use_igemm_convolution = true>, llvm_func_attrs = {"amdgpu-waves-per-eu" = "2"}}>> -> !transform.any_param
    transform.yield %arg0, %0 : !transform.any_op, !transform.any_param
  }
  transform.named_sequence @"module-635111237525844018_apply_op_config"(%arg0: !transform.any_op {transform.readonly}, %arg1: !transform.any_param {transform.readonly}) {
    transform.annotate %arg0 "compilation_info" = %arg1 : !transform.any_op, !transform.any_param
    transform.yield
  }
  transform.named_sequence @match_conv_2d_bfloat16_forward_16x75x75x64_nhwc_64x3x3x64_fhwc_nhwf_1x1s_1x1p_1x1d_1g$async_dispatch_0_conv_16x75x75x64x3x3x64_bf16xbf16xf32(%arg0: !transform.any_op {transform.readonly}) -> (!transform.any_op, !transform.any_param) {
    %inputs, %outputs = transform.iree.match.cast_compatible_dag_from_root %arg0 {
    ^bb0(%arg1: tensor<16x77x77x64xbf16>, %arg2: tensor<64x3x3x64xbf16>, %arg3: tensor<16x75x75x64xf32>):
      %1 = linalg.generic {indexing_maps = [affine_map<(d0, d1, d2, d3, d4, d5, d6) -> (d0, d1 + d4, d2 + d5, d6)>, affine_map<(d0, d1, d2, d3, d4, d5, d6) -> (d3, d4, d5, d6)>, affine_map<(d0, d1, d2, d3, d4, d5, d6) -> (d0, d1, d2, d3)>], iterator_types = ["parallel", "parallel", "parallel", "parallel", "reduction", "reduction", "reduction"]} ins(%arg1, %arg2 : tensor<16x77x77x64xbf16>, tensor<64x3x3x64xbf16>) outs(%arg3 : tensor<16x75x75x64xf32>) {
      ^bb0(%in: bf16, %in_0: bf16, %out: f32):
        %2 = arith.extf %in : bf16 to f32
        %3 = arith.extf %in_0 : bf16 to f32
        %4 = arith.mulf %2, %3 : f32
        %5 = arith.addf %out, %4 : f32
        linalg.yield %5 : f32
      } -> tensor<16x75x75x64xf32>
    } : (!transform.any_op) -> (!transform.any_value, !transform.any_value)
    %0 = transform.param.constant #iree_codegen.compilation_info<lowering_config = #iree_gpu.lowering_config<{mma_kind = #iree_gpu.mma_layout<MFMA_F32_16x16x16_BF16>, padding = [8, 1, 16, 64, 64], promote_operands = [0, 1, 2], reduction = [0, 0, 0, 0, 4], subgroup = [4, 1, 1, 1, 0], subgroup_m_count = 2 : i64, subgroup_n_count = 4 : i64, workgroup = [8, 1, 16, 64, 0]}>, translation_info = <pipeline = LLVMGPUTileAndFuse workgroup_size = [512, 1, 1] subgroup_size = 64, {gpu_pipeline_options = #iree_gpu.pipeline_options<prefetch_shared_memory = true, use_igemm_convolution = true>, llvm_func_attrs = {"amdgpu-waves-per-eu" = "2"}}>> -> !transform.any_param
    transform.yield %arg0, %0 : !transform.any_op, !transform.any_param
  }
  transform.named_sequence @"module-3936142755456294260_apply_op_config"(%arg0: !transform.any_op {transform.readonly}, %arg1: !transform.any_param {transform.readonly}) {
    transform.annotate %arg0 "compilation_info" = %arg1 : !transform.any_op, !transform.any_param
    transform.yield
  }
  transform.named_sequence @match_conv_2d_bfloat16_forward_16x75x75x64_nhwc_64x3x1x64_fhwc_nhwf_1x1s_1x0p_1x1d_1g$async_dispatch_0_conv_16x75x75x64x3x64_bf16xbf16xf32(%arg0: !transform.any_op {transform.readonly}) -> (!transform.any_op, !transform.any_param) {
    %inputs, %outputs = transform.iree.match.cast_compatible_dag_from_root %arg0 {
    ^bb0(%arg1: tensor<16x77x75x64xbf16>, %arg2: tensor<64x3x64xbf16>, %arg3: tensor<16x75x75x64xf32>):
      %1 = linalg.generic {indexing_maps = [affine_map<(d0, d1, d2, d3, d4, d5) -> (d0, d1 + d4, d2, d5)>, affine_map<(d0, d1, d2, d3, d4, d5) -> (d3, d4, d5)>, affine_map<(d0, d1, d2, d3, d4, d5) -> (d0, d1, d2, d3)>], iterator_types = ["parallel", "parallel", "parallel", "parallel", "reduction", "reduction"]} ins(%arg1, %arg2 : tensor<16x77x75x64xbf16>, tensor<64x3x64xbf16>) outs(%arg3 : tensor<16x75x75x64xf32>) {
      ^bb0(%in: bf16, %in_0: bf16, %out: f32):
        %2 = arith.extf %in : bf16 to f32
        %3 = arith.extf %in_0 : bf16 to f32
        %4 = arith.mulf %2, %3 : f32
        %5 = arith.addf %out, %4 : f32
        linalg.yield %5 : f32
      } -> tensor<16x75x75x64xf32>
    } : (!transform.any_op) -> (!transform.any_value, !transform.any_value)
    %0 = transform.param.constant #iree_codegen.compilation_info<lowering_config = #iree_gpu.lowering_config<{mma_kind = #iree_gpu.mma_layout<MFMA_F32_16x16x16_BF16>, padding = [2, 1, 16, 32, 64], promote_operands = [0, 1, 2], reduction = [0, 0, 0, 0, 4], subgroup = [1, 1, 1, 1, 0], subgroup_m_count = 2 : i64, subgroup_n_count = 2 : i64, workgroup = [2, 1, 16, 32, 0]}>, translation_info = <pipeline = LLVMGPUTileAndFuse workgroup_size = [256, 1, 1] subgroup_size = 64, {gpu_pipeline_options = #iree_gpu.pipeline_options<prefetch_shared_memory = true, use_igemm_convolution = true>, llvm_func_attrs = {"amdgpu-waves-per-eu" = "2"}}>> -> !transform.any_param
    transform.yield %arg0, %0 : !transform.any_op, !transform.any_param
  }
  transform.named_sequence @module6580227729474566616_apply_op_config(%arg0: !transform.any_op {transform.readonly}, %arg1: !transform.any_param {transform.readonly}) {
    transform.annotate %arg0 "compilation_info" = %arg1 : !transform.any_op, !transform.any_param
    transform.yield
  }
  transform.named_sequence @match_conv_2d_bfloat16_forward_16x75x75x64_nhwc_64x1x3x64_fhwc_nhwf_1x1s_0x1p_1x1d_1g$async_dispatch_0_conv_16x75x75x64x3x64_bf16xbf16xf32(%arg0: !transform.any_op {transform.readonly}) -> (!transform.any_op, !transform.any_param) {
    %inputs, %outputs = transform.iree.match.cast_compatible_dag_from_root %arg0 {
    ^bb0(%arg1: tensor<16x75x77x64xbf16>, %arg2: tensor<64x3x64xbf16>, %arg3: tensor<16x75x75x64xf32>):
      %1 = linalg.generic {indexing_maps = [affine_map<(d0, d1, d2, d3, d4, d5) -> (d0, d1, d2 + d4, d5)>, affine_map<(d0, d1, d2, d3, d4, d5) -> (d3, d4, d5)>, affine_map<(d0, d1, d2, d3, d4, d5) -> (d0, d1, d2, d3)>], iterator_types = ["parallel", "parallel", "parallel", "parallel", "reduction", "reduction"]} ins(%arg1, %arg2 : tensor<16x75x77x64xbf16>, tensor<64x3x64xbf16>) outs(%arg3 : tensor<16x75x75x64xf32>) {
      ^bb0(%in: bf16, %in_0: bf16, %out: f32):
        %2 = arith.extf %in : bf16 to f32
        %3 = arith.extf %in_0 : bf16 to f32
        %4 = arith.mulf %2, %3 : f32
        %5 = arith.addf %out, %4 : f32
        linalg.yield %5 : f32
      } -> tensor<16x75x75x64xf32>
    } : (!transform.any_op) -> (!transform.any_value, !transform.any_value)
    %0 = transform.param.constant #iree_codegen.compilation_info<lowering_config = #iree_gpu.lowering_config<{mma_kind = #iree_gpu.mma_layout<MFMA_F32_16x16x16_BF16>, padding = [4, 1, 16, 64, 64], promote_operands = [0, 1], reduction = [0, 0, 0, 0, 4], subgroup = [4, 1, 1, 1, 0], subgroup_m_count = 1 : i64, subgroup_n_count = 4 : i64, workgroup = [4, 1, 16, 64, 0]}>, translation_info = <pipeline = LLVMGPUTileAndFuse workgroup_size = [256, 1, 1] subgroup_size = 64, {gpu_pipeline_options = #iree_gpu.pipeline_options<prefetch_shared_memory = true, use_igemm_convolution = true>, llvm_func_attrs = {"amdgpu-waves-per-eu" = "2"}}>> -> !transform.any_param
    transform.yield %arg0, %0 : !transform.any_op, !transform.any_param
  }
  transform.named_sequence @"module-8700669116357993800_apply_op_config"(%arg0: !transform.any_op {transform.readonly}, %arg1: !transform.any_param {transform.readonly}) {
    transform.annotate %arg0 "compilation_info" = %arg1 : !transform.any_op, !transform.any_param
    transform.yield
  }
  transform.named_sequence @match_conv_2d_bfloat16_forward_16x38x38x64_nhwc_64x3x3x64_fhwc_nhwf_1x1s_1x1p_1x1d_1g$async_dispatch_0_conv_16x38x38x64x3x3x64_bf16xbf16xf32(%arg0: !transform.any_op {transform.readonly}) -> (!transform.any_op, !transform.any_param) {
    %inputs, %outputs = transform.iree.match.cast_compatible_dag_from_root %arg0 {
    ^bb0(%arg1: tensor<16x40x40x64xbf16>, %arg2: tensor<64x3x3x64xbf16>, %arg3: tensor<16x38x38x64xf32>):
      %1 = linalg.generic {indexing_maps = [affine_map<(d0, d1, d2, d3, d4, d5, d6) -> (d0, d1 + d4, d2 + d5, d6)>, affine_map<(d0, d1, d2, d3, d4, d5, d6) -> (d3, d4, d5, d6)>, affine_map<(d0, d1, d2, d3, d4, d5, d6) -> (d0, d1, d2, d3)>], iterator_types = ["parallel", "parallel", "parallel", "parallel", "reduction", "reduction", "reduction"]} ins(%arg1, %arg2 : tensor<16x40x40x64xbf16>, tensor<64x3x3x64xbf16>) outs(%arg3 : tensor<16x38x38x64xf32>) {
      ^bb0(%in: bf16, %in_0: bf16, %out: f32):
        %2 = arith.extf %in : bf16 to f32
        %3 = arith.extf %in_0 : bf16 to f32
        %4 = arith.mulf %2, %3 : f32
        %5 = arith.addf %out, %4 : f32
        linalg.yield %5 : f32
      } -> tensor<16x38x38x64xf32>
    } : (!transform.any_op) -> (!transform.any_value, !transform.any_value)
    %0 = transform.param.constant #iree_codegen.compilation_info<lowering_config = #iree_gpu.lowering_config<{mma_kind = #iree_gpu.mma_layout<MFMA_F32_16x16x16_BF16>, padding = [1, 2, 48, 32, 64], promote_operands = [0, 1, 2], reduction = [0, 0, 0, 0, 4], subgroup = [1, 2, 3, 1, 0], subgroup_m_count = 1 : i64, subgroup_n_count = 2 : i64, workgroup = [1, 2, 48, 32, 0]}>, translation_info = <pipeline = LLVMGPUTileAndFuse workgroup_size = [128, 1, 1] subgroup_size = 64, {gpu_pipeline_options = #iree_gpu.pipeline_options<prefetch_shared_memory = true, use_igemm_convolution = true>, llvm_func_attrs = {"amdgpu-waves-per-eu" = "2"}}>> -> !transform.any_param
    transform.yield %arg0, %0 : !transform.any_op, !transform.any_param
  }
  transform.named_sequence @module8379457896070944627_apply_op_config(%arg0: !transform.any_op {transform.readonly}, %arg1: !transform.any_param {transform.readonly}) {
    transform.annotate %arg0 "compilation_info" = %arg1 : !transform.any_op, !transform.any_param
    transform.yield
  }
  transform.named_sequence @match_conv_2d_bfloat16_forward_16x38x38x64_nhwc_64x3x1x64_fhwc_nhwf_1x1s_1x0p_1x1d_1g$async_dispatch_0_conv_16x38x38x64x3x64_bf16xbf16xf32(%arg0: !transform.any_op {transform.readonly}) -> (!transform.any_op, !transform.any_param) {
    %inputs, %outputs = transform.iree.match.cast_compatible_dag_from_root %arg0 {
    ^bb0(%arg1: tensor<16x40x38x64xbf16>, %arg2: tensor<64x3x64xbf16>, %arg3: tensor<16x38x38x64xf32>):
      %1 = linalg.generic {indexing_maps = [affine_map<(d0, d1, d2, d3, d4, d5) -> (d0, d1 + d4, d2, d5)>, affine_map<(d0, d1, d2, d3, d4, d5) -> (d3, d4, d5)>, affine_map<(d0, d1, d2, d3, d4, d5) -> (d0, d1, d2, d3)>], iterator_types = ["parallel", "parallel", "parallel", "parallel", "reduction", "reduction"]} ins(%arg1, %arg2 : tensor<16x40x38x64xbf16>, tensor<64x3x64xbf16>) outs(%arg3 : tensor<16x38x38x64xf32>) {
      ^bb0(%in: bf16, %in_0: bf16, %out: f32):
        %2 = arith.extf %in : bf16 to f32
        %3 = arith.extf %in_0 : bf16 to f32
        %4 = arith.mulf %2, %3 : f32
        %5 = arith.addf %out, %4 : f32
        linalg.yield %5 : f32
      } -> tensor<16x38x38x64xf32>
    } : (!transform.any_op) -> (!transform.any_value, !transform.any_value)
    %0 = transform.param.constant #iree_codegen.compilation_info<lowering_config = #iree_gpu.lowering_config<{mma_kind = #iree_gpu.mma_layout<MFMA_F32_16x16x16_BF16>, padding = [2, 1, 48, 64, 64], promote_operands = [0, 1, 2], reduction = [0, 0, 0, 0, 4], subgroup = [1, 1, 3, 2, 0], subgroup_m_count = 2 : i64, subgroup_n_count = 2 : i64, workgroup = [2, 1, 48, 64, 0]}>, translation_info = <pipeline = LLVMGPUTileAndFuse workgroup_size = [256, 1, 1] subgroup_size = 64, {gpu_pipeline_options = #iree_gpu.pipeline_options<prefetch_shared_memory = true, use_igemm_convolution = true>, llvm_func_attrs = {"amdgpu-waves-per-eu" = "2"}}>> -> !transform.any_param
    transform.yield %arg0, %0 : !transform.any_op, !transform.any_param
  }
  transform.named_sequence @"module-5039491333864607957_apply_op_config"(%arg0: !transform.any_op {transform.readonly}, %arg1: !transform.any_param {transform.readonly}) {
    transform.annotate %arg0 "compilation_info" = %arg1 : !transform.any_op, !transform.any_param
    transform.yield
  }
  transform.named_sequence @match_conv_2d_bfloat16_forward_16x38x38x64_nhwc_64x1x3x64_fhwc_nhwf_1x2s_0x1p_1x1d_1g$async_dispatch_0_conv_16x38x19x64x3x64_bf16xbf16xf32(%arg0: !transform.any_op {transform.readonly}) -> (!transform.any_op, !transform.any_param) {
    %inputs, %outputs = transform.iree.match.cast_compatible_dag_from_root %arg0 {
    ^bb0(%arg1: tensor<16x38x40x64xbf16>, %arg2: tensor<64x3x64xbf16>, %arg3: tensor<16x38x19x64xf32>):
      %1 = linalg.generic {indexing_maps = [affine_map<(d0, d1, d2, d3, d4, d5) -> (d0, d1, d2 * 2 + d4, d5)>, affine_map<(d0, d1, d2, d3, d4, d5) -> (d3, d4, d5)>, affine_map<(d0, d1, d2, d3, d4, d5) -> (d0, d1, d2, d3)>], iterator_types = ["parallel", "parallel", "parallel", "parallel", "reduction", "reduction"]} ins(%arg1, %arg2 : tensor<16x38x40x64xbf16>, tensor<64x3x64xbf16>) outs(%arg3 : tensor<16x38x19x64xf32>) {
      ^bb0(%in: bf16, %in_0: bf16, %out: f32):
        %2 = arith.extf %in : bf16 to f32
        %3 = arith.extf %in_0 : bf16 to f32
        %4 = arith.mulf %2, %3 : f32
        %5 = arith.addf %out, %4 : f32
        linalg.yield %5 : f32
      } -> tensor<16x38x19x64xf32>
    } : (!transform.any_op) -> (!transform.any_value, !transform.any_value)
    %0 = transform.param.constant #iree_codegen.compilation_info<lowering_config = #iree_gpu.lowering_config<{mma_kind = #iree_gpu.mma_layout<MFMA_F32_16x16x16_BF16>, padding = [2, 1, 32, 32, 64], promote_operands = [0, 1, 2], reduction = [0, 0, 0, 0, 4], subgroup = [2, 1, 2, 1, 0], subgroup_m_count = 1 : i64, subgroup_n_count = 2 : i64, workgroup = [2, 1, 32, 32, 0]}>, translation_info = <pipeline = LLVMGPUTileAndFuse workgroup_size = [128, 1, 1] subgroup_size = 64, {gpu_pipeline_options = #iree_gpu.pipeline_options<prefetch_shared_memory = true, use_igemm_convolution = true>, llvm_func_attrs = {"amdgpu-waves-per-eu" = "2"}}>> -> !transform.any_param
    transform.yield %arg0, %0 : !transform.any_op, !transform.any_param
  }
  transform.named_sequence @module6779201215905566288_apply_op_config(%arg0: !transform.any_op {transform.readonly}, %arg1: !transform.any_param {transform.readonly}) {
    transform.annotate %arg0 "compilation_info" = %arg1 : !transform.any_op, !transform.any_param
    transform.yield
  }
  transform.named_sequence @match_conv_2d_bfloat16_forward_16x38x38x64_nhwc_64x1x3x64_fhwc_nhwf_1x1s_0x1p_1x1d_1g$async_dispatch_0_conv_16x38x38x64x3x64_bf16xbf16xf32(%arg0: !transform.any_op {transform.readonly}) -> (!transform.any_op, !transform.any_param) {
    %inputs, %outputs = transform.iree.match.cast_compatible_dag_from_root %arg0 {
    ^bb0(%arg1: tensor<16x38x40x64xbf16>, %arg2: tensor<64x3x64xbf16>, %arg3: tensor<16x38x38x64xf32>):
      %1 = linalg.generic {indexing_maps = [affine_map<(d0, d1, d2, d3, d4, d5) -> (d0, d1, d2 + d4, d5)>, affine_map<(d0, d1, d2, d3, d4, d5) -> (d3, d4, d5)>, affine_map<(d0, d1, d2, d3, d4, d5) -> (d0, d1, d2, d3)>], iterator_types = ["parallel", "parallel", "parallel", "parallel", "reduction", "reduction"]} ins(%arg1, %arg2 : tensor<16x38x40x64xbf16>, tensor<64x3x64xbf16>) outs(%arg3 : tensor<16x38x38x64xf32>) {
      ^bb0(%in: bf16, %in_0: bf16, %out: f32):
        %2 = arith.extf %in : bf16 to f32
        %3 = arith.extf %in_0 : bf16 to f32
        %4 = arith.mulf %2, %3 : f32
        %5 = arith.addf %out, %4 : f32
        linalg.yield %5 : f32
      } -> tensor<16x38x38x64xf32>
    } : (!transform.any_op) -> (!transform.any_value, !transform.any_value)
    %0 = transform.param.constant #iree_codegen.compilation_info<lowering_config = #iree_gpu.lowering_config<{mma_kind = #iree_gpu.mma_layout<MFMA_F32_32x32x8_BF16>, padding = [2, 2, 32, 64, 64], promote_operands = [0, 1, 2], reduction = [0, 0, 0, 0, 8], subgroup = [1, 2, 1, 1, 0], subgroup_m_count = 2 : i64, subgroup_n_count = 2 : i64, workgroup = [2, 2, 32, 64, 0]}>, translation_info = <pipeline = LLVMGPUTileAndFuse workgroup_size = [256, 1, 1] subgroup_size = 64, {gpu_pipeline_options = #iree_gpu.pipeline_options<prefetch_shared_memory = true, use_igemm_convolution = true>, llvm_func_attrs = {"amdgpu-waves-per-eu" = "2"}}>> -> !transform.any_param
    transform.yield %arg0, %0 : !transform.any_op, !transform.any_param
  }
  transform.named_sequence @"module-6448970276782038641_apply_op_config"(%arg0: !transform.any_op {transform.readonly}, %arg1: !transform.any_param {transform.readonly}) {
    transform.annotate %arg0 "compilation_info" = %arg1 : !transform.any_op, !transform.any_param
    transform.yield
  }
  transform.named_sequence @match_conv_2d_bfloat16_forward_16x38x19x64_nhwc_64x5x1x64_fhwc_nhwf_1x1s_2x0p_1x1d_1g$async_dispatch_0_conv_16x38x19x64x5x64_bf16xbf16xf32(%arg0: !transform.any_op {transform.readonly}) -> (!transform.any_op, !transform.any_param) {
    %inputs, %outputs = transform.iree.match.cast_compatible_dag_from_root %arg0 {
    ^bb0(%arg1: tensor<16x42x19x64xbf16>, %arg2: tensor<64x5x64xbf16>, %arg3: tensor<16x38x19x64xf32>):
      %1 = linalg.generic {indexing_maps = [affine_map<(d0, d1, d2, d3, d4, d5) -> (d0, d1 + d4, d2, d5)>, affine_map<(d0, d1, d2, d3, d4, d5) -> (d3, d4, d5)>, affine_map<(d0, d1, d2, d3, d4, d5) -> (d0, d1, d2, d3)>], iterator_types = ["parallel", "parallel", "parallel", "parallel", "reduction", "reduction"]} ins(%arg1, %arg2 : tensor<16x42x19x64xbf16>, tensor<64x5x64xbf16>) outs(%arg3 : tensor<16x38x19x64xf32>) {
      ^bb0(%in: bf16, %in_0: bf16, %out: f32):
        %2 = arith.extf %in : bf16 to f32
        %3 = arith.extf %in_0 : bf16 to f32
        %4 = arith.mulf %2, %3 : f32
        %5 = arith.addf %out, %4 : f32
        linalg.yield %5 : f32
      } -> tensor<16x38x19x64xf32>
    } : (!transform.any_op) -> (!transform.any_value, !transform.any_value)
    %0 = transform.param.constant #iree_codegen.compilation_info<lowering_config = #iree_gpu.lowering_config<{mma_kind = #iree_gpu.mma_layout<MFMA_F32_32x32x8_BF16>, padding = [2, 2, 32, 64, 64], promote_operands = [0, 1, 2], reduction = [0, 0, 0, 0, 8], subgroup = [1, 2, 1, 1, 0], subgroup_m_count = 2 : i64, subgroup_n_count = 2 : i64, workgroup = [2, 2, 32, 64, 0]}>, translation_info = <pipeline = LLVMGPUTileAndFuse workgroup_size = [256, 1, 1] subgroup_size = 64, {gpu_pipeline_options = #iree_gpu.pipeline_options<prefetch_shared_memory = true, use_igemm_convolution = true>, llvm_func_attrs = {"amdgpu-waves-per-eu" = "2"}}>> -> !transform.any_param
    transform.yield %arg0, %0 : !transform.any_op, !transform.any_param
  }
  transform.named_sequence @"module-569032847298006118_apply_op_config"(%arg0: !transform.any_op {transform.readonly}, %arg1: !transform.any_param {transform.readonly}) {
    transform.annotate %arg0 "compilation_info" = %arg1 : !transform.any_op, !transform.any_param
    transform.yield
  }
  transform.named_sequence @match_conv_2d_bfloat16_forward_16x24x16x64_nhwc_192x1x1x64_fhwc_nhwf_1x1s_0x0p_1x1d_1g$async_dispatch_0_matmul_like_6144x192x64_bf16xbf16xf32(%arg0: !transform.any_op {transform.readonly}) -> (!transform.any_op, !transform.any_param) {
    %inputs, %outputs = transform.iree.match.cast_compatible_dag_from_root %arg0 {
    ^bb0(%arg1: tensor<6144x64xbf16>, %arg2: tensor<192x64xbf16>, %arg3: tensor<6144x192xf32>):
      %1 = linalg.generic {indexing_maps = [affine_map<(d0, d1, d2) -> (d0, d2)>, affine_map<(d0, d1, d2) -> (d1, d2)>, affine_map<(d0, d1, d2) -> (d0, d1)>], iterator_types = ["parallel", "parallel", "reduction"]} ins(%arg1, %arg2 : tensor<6144x64xbf16>, tensor<192x64xbf16>) outs(%arg3 : tensor<6144x192xf32>) {
      ^bb0(%in: bf16, %in_0: bf16, %out: f32):
        %2 = arith.extf %in : bf16 to f32
        %3 = arith.extf %in_0 : bf16 to f32
        %4 = arith.mulf %2, %3 : f32
        %5 = arith.addf %out, %4 : f32
        linalg.yield %5 : f32
      } -> tensor<6144x192xf32>
    } : (!transform.any_op) -> (!transform.any_value, !transform.any_value)
    %0 = transform.param.constant #iree_codegen.compilation_info<lowering_config = #iree_gpu.lowering_config<{mma_kind = #iree_gpu.mma_layout<MFMA_F32_32x32x8_BF16>, promote_operands = [0, 1], reduction = [0, 0, 2], subgroup = [2, 3, 0], subgroup_m_count = 1 : i64, subgroup_n_count = 2 : i64, workgroup = [64, 192, 0]}>, translation_info = <pipeline = LLVMGPUTileAndFuse workgroup_size = [128, 1, 1] subgroup_size = 64, {gpu_pipeline_options = #iree_gpu.pipeline_options<prefetch_shared_memory = true>, llvm_func_attrs = {"amdgpu-waves-per-eu" = "2"}}>> -> !transform.any_param
    transform.yield %arg0, %0 : !transform.any_op, !transform.any_param
  }
  transform.named_sequence @module3370704861027872881_apply_op_config(%arg0: !transform.any_op {transform.readonly}, %arg1: !transform.any_param {transform.readonly}) {
    transform.annotate %arg0 "compilation_info" = %arg1 : !transform.any_op, !transform.any_param
    transform.yield
  }
  transform.named_sequence @match_conv_2d_bfloat16_forward_16x225x225x64_nhwc_64x3x3x64_fhwc_nhwf_3x3s_1x1p_1x1d_1g$async_dispatch_0_conv_16x75x75x64x3x3x64_bf16xbf16xf32(%arg0: !transform.any_op {transform.readonly}) -> (!transform.any_op, !transform.any_param) {
    %inputs, %outputs = transform.iree.match.cast_compatible_dag_from_root %arg0 {
    ^bb0(%arg1: tensor<16x227x227x64xbf16>, %arg2: tensor<64x3x3x64xbf16>, %arg3: tensor<16x75x75x64xf32>):
      %1 = linalg.generic {indexing_maps = [affine_map<(d0, d1, d2, d3, d4, d5, d6) -> (d0, d1 * 3 + d4, d2 * 3 + d5, d6)>, affine_map<(d0, d1, d2, d3, d4, d5, d6) -> (d3, d4, d5, d6)>, affine_map<(d0, d1, d2, d3, d4, d5, d6) -> (d0, d1, d2, d3)>], iterator_types = ["parallel", "parallel", "parallel", "parallel", "reduction", "reduction", "reduction"]} ins(%arg1, %arg2 : tensor<16x227x227x64xbf16>, tensor<64x3x3x64xbf16>) outs(%arg3 : tensor<16x75x75x64xf32>) {
      ^bb0(%in: bf16, %in_0: bf16, %out: f32):
        %2 = arith.extf %in : bf16 to f32
        %3 = arith.extf %in_0 : bf16 to f32
        %4 = arith.mulf %2, %3 : f32
        %5 = arith.addf %out, %4 : f32
        linalg.yield %5 : f32
      } -> tensor<16x75x75x64xf32>
    } : (!transform.any_op) -> (!transform.any_value, !transform.any_value)
    %0 = transform.param.constant #iree_codegen.compilation_info<lowering_config = #iree_gpu.lowering_config<{mma_kind = #iree_gpu.mma_layout<MFMA_F32_16x16x16_BF16>, padding = [8, 1, 16, 64, 64], promote_operands = [0, 1], reduction = [0, 0, 0, 0, 4], subgroup = [4, 1, 1, 1, 0], subgroup_m_count = 2 : i64, subgroup_n_count = 4 : i64, workgroup = [8, 1, 16, 64, 0]}>, translation_info = <pipeline = LLVMGPUTileAndFuse workgroup_size = [512, 1, 1] subgroup_size = 64, {gpu_pipeline_options = #iree_gpu.pipeline_options<prefetch_shared_memory = true, use_igemm_convolution…
s = #iree_gpu.pipeline_options<prefetch_shared_memory = true>, llvm_func_attrs = {"amdgpu-waves-per-eu" = "2"}}>> -> !transform.any_param
    transform.yield %arg0, %0 : !transform.any_op, !transform.any_param
  }
  transform.named_sequence @module6851109957392407656_apply_op_config(%arg0: !transform.any_op {transform.readonly}, %arg1: !transform.any_param {transform.readonly}) {
    transform.annotate %arg0 "compilation_info" = %arg1 : !transform.any_op, !transform.any_param
    transform.yield
  }
  transform.named_sequence @module7014507521830355182_match_conv_3d_bfloat16_forward_b_16x2x48x32x288_ndhwc_288x3x1x1x96_fdhwc_ndhwf_1x1x1s_1x0x0p_1x1x1d_3g$async_dispatch_0_conv_16x2x48x32x3x96x3x96_bf16xbf16xf32(%arg0: !transform.any_op {transform.readonly}) -> (!transform.any_op, !transform.any_param) {
    %inputs, %outputs = transform.iree.match.cast_compatible_dag_from_root %arg0 {
    ^bb0(%arg1: tensor<16x4x48x32x3x96xbf16>, %arg2: tensor<3x96x3x96xbf16>, %arg3: tensor<16x2x48x32x3x96xf32>):
      %1 = linalg.generic {indexing_maps = [affine_map<(d0, d1, d2, d3, d4, d5, d6, d7) -> (d0, d1 + d6, d2, d3, d4, d7)>, affine_map<(d0, d1, d2, d3, d4, d5, d6, d7) -> (d4, d5, d6, d7)>, affine_map<(d0, d1, d2, d3, d4, d5, d6, d7) -> (d0, d1, d2, d3, d4, d5)>], iterator_types = ["parallel", "parallel", "parallel", "parallel", "parallel", "parallel", "reduction", "reduction"]} ins(%arg1, %arg2 : tensor<16x4x48x32x3x96xbf16>, tensor<3x96x3x96xbf16>) outs(%arg3 : tensor<16x2x48x32x3x96xf32>) {
      ^bb0(%in: bf16, %in_0: bf16, %out: f32):
        %2 = arith.extf %in : bf16 to f32
        %3 = arith.extf %in_0 : bf16 to f32
        %4 = arith.mulf %2, %3 : f32
        %5 = arith.addf %out, %4 : f32
        linalg.yield %5 : f32
      } -> tensor<16x2x48x32x3x96xf32>
    } : (!transform.any_op) -> (!transform.any_value, !transform.any_value)
    %0 = transform.param.constant #iree_codegen.compilation_info<lowering_config = #iree_gpu.lowering_config<{mma_kind = #iree_gpu.mma_layout<MFMA_F32_32x32x8_BF16>, promote_operands = [0, 1], reduction = [0, 0, 0, 0, 0, 0, 4], subgroup = [2, 1, 3, 1, 1, 1, 0], subgroup_m_count = 1 : i64, subgroup_n_count = 3 : i64, workgroup = [2, 1, 3, 32, 1, 96, 0]}>, translation_info = <pipeline = LLVMGPUTileAndFuse workgroup_size = [192, 1, 1] subgroup_size = 64, {gpu_pipeline_options = #iree_gpu.pipeline_options<prefetch_shared_memory = true, use_igemm_convolution = true>, llvm_func_attrs = {"amdgpu-waves-per-eu" = "2"}}>> -> !transform.any_param
    transform.yield %arg0, %0 : !transform.any_op, !transform.any_param
  }
  transform.named_sequence @"module-8084250599234373333_apply_op_config"(%arg0: !transform.any_op {transform.readonly}, %arg1: !transform.any_param {transform.readonly}) {
    transform.annotate %arg0 "compilation_info" = %arg1 : !transform.any_op, !transform.any_param
    transform.yield
  }
  transform.named_sequence @module3276315160131382713_match_conv_3d_bfloat16_forward_b_16x2x48x32x288_ndhwc_288x1x3x3x96_fdhwc_ndhwf_1x1x1s_0x1x1p_1x1x1d_3g$async_dispatch_0_conv_16x2x48x32x3x96x3x3x96_bf16xbf16xf32(%arg0: !transform.any_op {transform.readonly}) -> (!transform.any_op, !transform.any_param) {
    %inputs, %outputs = transform.iree.match.cast_compatible_dag_from_root %arg0 {
    ^bb0(%arg1: tensor<16x2x50x34x3x96xbf16>, %arg2: tensor<3x96x3x3x96xbf16>, %arg3: tensor<16x2x48x32x3x96xf32>):
      %1 = linalg.generic {indexing_maps = [affine_map<(d0, d1, d2, d3, d4, d5, d6, d7, d8) -> (d0, d1, d2 + d6, d3 + d7, d4, d8)>, affine_map<(d0, d1, d2, d3, d4, d5, d6, d7, d8) -> (d4, d5, d6, d7, d8)>, affine_map<(d0, d1, d2, d3, d4, d5, d6, d7, d8) -> (d0, d1, d2, d3, d4, d5)>], iterator_types = ["parallel", "parallel", "parallel", "parallel", "parallel", "parallel", "reduction", "reduction", "reduction"]} ins(%arg1, %arg2 : tensor<16x2x50x34x3x96xbf16>, tensor<3x96x3x3x96xbf16>) outs(%arg3 : tensor<16x2x48x32x3x96xf32>) {
      ^bb0(%in: bf16, %in_0: bf16, %out: f32):
        %2 = arith.extf %in : bf16 to f32
        %3 = arith.extf %in_0 : bf16 to f32
        %4 = arith.mulf %2, %3 : f32
        %5 = arith.addf %out, %4 : f32
        linalg.yield %5 : f32
      } -> tensor<16x2x48x32x3x96xf32>
    } : (!transform.any_op) -> (!transform.any_value, !transform.any_value)
    %0 = transform.param.constant #iree_codegen.compilation_info<lowering_config = #iree_gpu.lowering_config<{mma_kind = #iree_gpu.mma_layout<MFMA_F32_32x32x8_BF16>, promote_operands = [0, 1], reduction = [0, 0, 0, 0, 0, 0, 4], subgroup = [1, 1, 4, 1, 1, 3, 0], subgroup_m_count = 2 : i64, subgroup_n_count = 1 : i64, workgroup = [2, 1, 4, 32, 1, 96, 0]}>, translation_info = <pipeline = LLVMGPUTileAndFuse workgroup_size = [128, 1, 1] subgroup_size = 64, {gpu_pipeline_options = #iree_gpu.pipeline_options<prefetch_shared_memory = true, use_igemm_convolution = true>, llvm_func_attrs = {"amdgpu-waves-per-eu" = "2"}}>> -> !transform.any_param
    transform.yield %arg0, %0 : !transform.any_op, !transform.any_param
  }
  transform.named_sequence @"module-998895541307183783_apply_op_config"(%arg0: !transform.any_op {transform.readonly}, %arg1: !transform.any_param {transform.readonly}) {
    transform.annotate %arg0 "compilation_info" = %arg1 : !transform.any_op, !transform.any_param
    transform.yield
  }
  transform.named_sequence @"module-1970581355946039598_match_conv_3d_bfloat16_forward_b_16x4x48x32x288_ndhwc_288x3x1x1x96_fdhwc_ndhwf_1x1x1s_1x0x0p_1x1x1d_3g$async_dispatch_0_conv_16x4x48x32x3x96x3x96_bf16xbf16xf32"(%arg0: !transform.any_op {transform.readonly}) -> (!transform.any_op, !transform.any_param) {
    %inputs, %outputs = transform.iree.match.cast_compatible_dag_from_root %arg0 {
    ^bb0(%arg1: tensor<16x6x48x32x3x96xbf16>, %arg2: tensor<3x96x3x96xbf16>, %arg3: tensor<16x4x48x32x3x96xf32>):
      %1 = linalg.generic {indexing_maps = [affine_map<(d0, d1, d2, d3, d4, d5, d6, d7) -> (d0, d1 + d6, d2, d3, d4, d7)>, affine_map<(d0, d1, d2, d3, d4, d5, d6, d7) -> (d4, d5, d6, d7)>, affine_map<(d0, d1, d2, d3, d4, d5, d6, d7) -> (d0, d1, d2, d3, d4, d5)>], iterator_types = ["parallel", "parallel", "parallel", "parallel", "parallel", "parallel", "reduction", "reduction"]} ins(%arg1, %arg2 : tensor<16x6x48x32x3x96xbf16>, tensor<3x96x3x96xbf16>) outs(%arg3 : tensor<16x4x48x32x3x96xf32>) {
      ^bb0(%in: bf16, %in_0: bf16, %out: f32):
        %2 = arith.extf %in : bf16 to f32
        %3 = arith.extf %in_0 : bf16 to f32
        %4 = arith.mulf %2, %3 : f32
        %5 = arith.addf %out, %4 : f32
        linalg.yield %5 : f32
      } -> tensor<16x4x48x32x3x96xf32>
    } : (!transform.any_op) -> (!transform.any_value, !transform.any_value)
    %0 = transform.param.constant #iree_codegen.compilation_info<lowering_config = #iree_gpu.lowering_config<{mma_kind = #iree_gpu.mma_layout<MFMA_F32_32x32x8_BF16>, promote_operands = [0, 1], reduction = [0, 0, 0, 0, 0, 0, 4], subgroup = [1, 4, 1, 1, 1, 3, 0], subgroup_m_count = 2 : i64, subgroup_n_count = 1 : i64, workgroup = [2, 4, 1, 32, 1, 96, 0]}>, translation_info = <pipeline = LLVMGPUTileAndFuse workgroup_size = [128, 1, 1] subgroup_size = 64, {gpu_pipeline_options = #iree_gpu.pipeline_options<prefetch_shared_memory = true, use_igemm_convolution = true>, llvm_func_attrs = {"amdgpu-waves-per-eu" = "2"}}>> -> !transform.any_param
    transform.yield %arg0, %0 : !transform.any_op, !transform.any_param
  }
  transform.named_sequence @module8795648018915444682_apply_op_config(%arg0: !transform.any_op {transform.readonly}, %arg1: !transform.any_param {transform.readonly}) {
    transform.annotate %arg0 "compilation_info" = %arg1 : !transform.any_op, !transform.any_param
    transform.yield
  }
  transform.named_sequence @module7216368369122952845_match_conv_3d_bfloat16_forward_b_16x4x48x32x288_ndhwc_288x1x3x3x96_fdhwc_ndhwf_1x1x1s_0x1x1p_1x1x1d_3g$async_dispatch_0_conv_16x4x48x32x3x96x3x3x96_bf16xbf16xf32(%arg0: !transform.any_op {transform.readonly}) -> (!transform.any_op, !transform.any_param) {
    %inputs, %outputs = transform.iree.match.cast_compatible_dag_from_root %arg0 {
    ^bb0(%arg1: tensor<16x4x50x34x3x96xbf16>, %arg2: tensor<3x96x3x3x96xbf16>, %arg3: tensor<16x4x48x32x3x96xf32>):
      %1 = linalg.generic {indexing_maps = [affine_map<(d0, d1, d2, d3, d4, d5, d6, d7, d8) -> (d0, d1, d2 + d6, d3 + d7, d4, d8)>, affine_map<(d0, d1, d2, d3, d4, d5, d6, d7, d8) -> (d4, d5, d6, d7, d8)>, affine_map<(d0, d1, d2, d3, d4, d5, d6, d7, d8) -> (d0, d1, d2, d3, d4, d5)>], iterator_types = ["parallel", "parallel", "parallel", "parallel", "parallel", "parallel", "reduction", "reduction", "reduction"]} ins(%arg1, %arg2 : tensor<16x4x50x34x3x96xbf16>, tensor<3x96x3x3x96xbf16>) outs(%arg3 : tensor<16x4x48x32x3x96xf32>) {
      ^bb0(%in: bf16, %in_0: bf16, %out: f32):
        %2 = arith.extf %in : bf16 to f32
        %3 = arith.extf %in_0 : bf16 to f32
        %4 = arith.mulf %2, %3 : f32
        %5 = arith.addf %out, %4 : f32
        linalg.yield %5 : f32
      } -> tensor<16x4x48x32x3x96xf32>
    } : (!transform.any_op) -> (!transform.any_value, !transform.any_value)
    %0 = transform.param.constant #iree_codegen.compilation_info<lowering_config = #iree_gpu.lowering_config<{mma_kind = #iree_gpu.mma_layout<MFMA_F32_16x16x16_BF16>, promote_operands = [0, 1], reduction = [0, 0, 0, 0, 0, 0, 2], subgroup = [1, 2, 2, 2, 1, 3, 0], subgroup_m_count = 1 : i64, subgroup_n_count = 2 : i64, workgroup = [1, 2, 2, 32, 1, 96, 0]}>, translation_info = <pipeline = LLVMGPUTileAndFuse workgroup_size = [128, 1, 1] subgroup_size = 64, {gpu_pipeline_options = #iree_gpu.pipeline_options<prefetch_shared_memory = true, use_igemm_convolution = true>, llvm_func_attrs = {"amdgpu-waves-per-eu" = "2"}}>> -> !transform.any_param
    transform.yield %arg0, %0 : !transform.any_op, !transform.any_param
  }
  transform.named_sequence @"module-317436726597910684_apply_op_config"(%arg0: !transform.any_op {transform.readonly}, %arg1: !transform.any_param {transform.readonly}) {
    transform.annotate %arg0 "compilation_info" = %arg1 : !transform.any_op, !transform.any_param
    transform.yield
  }
  transform.named_sequence @module6909153255479619441_match_conv_3d_bfloat16_forward_b_16x8x48x32x288_ndhwc_288x3x1x1x96_fdhwc_ndhwf_1x1x1s_1x0x0p_1x1x1d_3g$async_dispatch_0_conv_16x8x48x32x3x96x3x96_bf16xbf16xf32(%arg0: !transform.any_op {transform.readonly}) -> (!transform.any_op, !transform.any_param) {
    %inputs, %outputs = transform.iree.match.cast_compatible_dag_from_root %arg0 {
    ^bb0(%arg1: tensor<16x10x48x32x3x96xbf16>, %arg2: tensor<3x96x3x96xbf16>, %arg3: tensor<16x8x48x32x3x96xf32>):
      %1 = linalg.generic {indexing_maps = [affine_map<(d0, d1, d2, d3, d4, d5, d6, d7) -> (d0, d1 + d6, d2, d3, d4, d7)>, affine_map<(d0, d1, d2, d3, d4, d5, d6, d7) -> (d4, d5, d6, d7)>, affine_map<(d0, d1, d2, d3, d4, d5, d6, d7) -> (d0, d1, d2, d3, d4, d5)>], iterator_types = ["parallel", "parallel", "parallel", "parallel", "parallel", "parallel", "reduction", "reduction"]} ins(%arg1, %arg2 : tensor<16x10x48x32x3x96xbf16>, tensor<3x96x3x96xbf16>) outs(%arg3 : tensor<16x8x48x32x3x96xf32>) {
      ^bb0(%in: bf16, %in_0: bf16, %out: f32):
        %2 = arith.extf %in : bf16 to f32
        %3 = arith.extf %in_0 : bf16 to f32
        %4 = arith.mulf %2, %3 : f32
        %5 = arith.addf %out, %4 : f32
        linalg.yield %5 : f32
      } -> tensor<16x8x48x32x3x96xf32>
    } : (!transform.any_op) -> (!transform.any_value, !transform.any_value)
    %0 = transform.param.constant #iree_codegen.compilation_info<lowering_config = #iree_gpu.lowering_config<{mma_kind = #iree_gpu.mma_layout<MFMA_F32_16x16x16_BF16>, promote_operands = [0, 1], reduction = [0, 0, 0, 0, 0, 0, 2], subgroup = [1, 1, 1, 2, 1, 6, 0], subgroup_m_count = 3 : i64, subgroup_n_count = 1 : i64, workgroup = [1, 1, 3, 32, 1, 96, 0]}>, translation_info = <pipeline = LLVMGPUTileAndFuse workgroup_size = [192, 1, 1] subgroup_size = 64, {gpu_pipeline_options = #iree_gpu.pipeline_options<prefetch_shared_memory = true, use_igemm_convolution = true>, llvm_func_attrs = {"amdgpu-waves-per-eu" = "2"}}>> -> !transform.any_param
    transform.yield %arg0, %0 : !transform.any_op, !transform.any_param
  }
  transform.named_sequence @module8983234031431727099_apply_op_config(%arg0: !transform.any_op {transform.readonly}, %arg1: !transform.any_param {transform.readonly}) {
    transform.annotate %arg0 "compilation_info" = %arg1 : !transform.any_op, !transform.any_param
    transform.yield
  }
  transform.named_sequence @module3515167887415924444_match_conv_3d_bfloat16_forward_b_16x8x48x32x288_ndhwc_288x1x3x3x96_fdhwc_ndhwf_1x1x1s_0x1x1p_1x1x1d_3g$async_dispatch_0_conv_16x8x48x32x3x96x3x3x96_bf16xbf16xf32(%arg0: !transform.any_op {transform.readonly}) -> (!transform.any_op, !transform.any_param) {
    %inputs, %outputs = transform.iree.match.cast_compatible_dag_from_root %arg0 {
    ^bb0(%arg1: tensor<16x8x50x34x3x96xbf16>, %arg2: tensor<3x96x3x3x96xbf16>, %arg3: tensor<16x8x48x32x3x96xf32>):
      %1 = linalg.generic {indexing_maps = [affine_map<(d0, d1, d2, d3, d4, d5, d6, d7, d8) -> (d0, d1, d2 + d6, d3 + d7, d4, d8)>, affine_map<(d0, d1, d2, d3, d4, d5, d6, d7, d8) -> (d4, d5, d6, d7, d8)>, affine_map<(d0, d1, d2, d3, d4, d5, d6, d7, d8) -> (d0, d1, d2, d3, d4, d5)>], iterator_types = ["parallel", "parallel", "parallel", "parallel", "parallel", "parallel", "reduction", "reduction", "reduction"]} ins(%arg1, %arg2 : tensor<16x8x50x34x3x96xbf16>, tensor<3x96x3x3x96xbf16>) outs(%arg3 : tensor<16x8x48x32x3x96xf32>) {
      ^bb0(%in: bf16, %in_0: bf16, %out: f32):
        %2 = arith.extf %in : bf16 to f32
        %3 = arith.extf %in_0 : bf16 to f32
        %4 = arith.mulf %2, %3 : f32
        %5 = arith.addf %out, %4 : f32
        linalg.yield %5 : f32
      } -> tensor<16x8x48x32x3x96xf32>
    } : (!transform.any_op) -> (!transform.any_value, !transform.any_value)
    %0 = transform.param.constant #iree_codegen.compilation_info<lowering_config = #iree_gpu.lowering_config<{mma_kind = #iree_gpu.mma_layout<MFMA_F32_16x16x16_BF16>, promote_operands = [0, 1], reduction = [0, 0, 0, 0, 0, 0, 2], subgroup = [1, 1, 2, 1, 1, 3, 0], subgroup_m_count = 3 : i64, subgroup_n_count = 2 : i64, workgroup = [1, 1, 6, 16, 1, 96, 0]}>, translation_info = <pipeline = LLVMGPUTileAndFuse workgroup_size = [384, 1, 1] subgroup_size = 64, {gpu_pipeline_options = #iree_gpu.pipeline_options<prefetch_shared_memory = true, use_igemm_convolution = true>, llvm_func_attrs = {"amdgpu-waves-per-eu" = "2"}}>> -> !transform.any_param
    transform.yield %arg0, %0 : !transform.any_op, !transform.any_param
  }
  transform.named_sequence @__kernel_config(%arg0: !transform.any_op {transform.consumed}) -> !transform.any_op attributes {iree_codegen.tuning_spec_entrypoint} {
    %updated_root = transform.foreach_match in %arg0
        @match_conv_2d_bfloat16_forward_16x24x16x288_nhwc_288x3x1x96_fhwc_nhwf_1x1s_1x0p_1x1d_3g$async_dispatch_0_conv_16x24x16x3x96x3x96_bf16xbf16xf32 -> @apply_op_config,
        @match_conv_2d_bfloat16_forward_128x24x48x384_nhwc_512x1x1x384_fhwc_nhwf_1x1s_0x0p_1x1d_1g$async_dispatch_0_matmul_like_147456x512x384_bf16xbf16xf32 -> @"module-8838592581327294770_apply_op_config",
        @match_conv_2d_bfloat16_forward_16x96x64x96_nhwc_96x1x1x96_fhwc_nhwf_1x1s_0x0p_1x1d_1g$async_dispatch_0_matmul_like_98304x96x96_bf16xbf16xf32 -> @"module-4092354048484454229_apply_op_config",
        @match_conv_2d_bfloat16_forward_16x48x32x48_nhwc_48x5x5x48_fhwc_nhwf_1x1s_8x8p_4x4d_1g$async_dispatch_0_conv_16x48x32x48x5x5x48_bf16xbf16xf32 -> @module2689198279833294263_apply_op_config,
        @match_conv_2d_bfloat16_forward_16x48x32x576_nhwc_576x1x1x576_fhwc_nhwf_1x1s_0x0p_1x1d_1g$async_dispatch_0_matmul_like_24576x576x576_bf16xbf16xf32 -> @module3994070714556536465_apply_op_config,
        @match_conv_2d_bfloat16_forward_16x48x32x480_nhwc_480x1x1x96_fhwc_nhwf_1x1s_0x0p_1x1d_5g$async_dispatch_0_matmul_like_16x48x32x5x96x96_bf16xbf16xf32 -> @module5276668663876473507_apply_op_config,
        @match_conv_2d_bfloat16_forward_128x24x48x480_nhwc_384x1x1x480_fhwc_nhwf_1x1s_0x0p_1x1d_1g$async_dispatch_0_matmul_like_147456x384x480_bf16xbf16xf32 -> @"module-4767593926805822391_apply_op_config",
        @match_conv_3d_bfloat16_forward_b_16x2x48x32x288_ndhwc_288x3x1x1x96_fdhwc_ndhwf_1x1x1s_1x0x0p_1x1x1d_3g$async_dispatch_0_conv_16x2x48x32x3x96x3x96_bf16xbf16xf32 -> @"module-1608284571499770249_apply_op_config",
        @match_conv_2d_bfloat16_forward_16x48x32x672_nhwc_576x1x1x672_fhwc_nhwf_1x1s_0x0p_1x1d_1g$async_dispatch_0_matmul_like_24576x576x672_bf16xbf16xf32 -> @"module-464855148765289941_apply_op_config",
        @match_conv_2d_bfloat16_forward_16x96x64x96_nhwc_96x3x1x96_fhwc_nhwf_1x1s_1x0p_1x1d_1g$async_dispatch_0_conv_16x96x64x96x3x96_bf16xbf16xf32 -> @module4378881155291204668_apply_op_config,
        @match_conv_2d_bfloat16_forward_16x96x64x48_nhwc_48x3x3x48_fhwc_nhwf_1x1s_1x1p_1x1d_1g$async_dispatch_0_conv_16x96x64x48x3x3x48_bf16xbf16xf32 -> @"module-763959733402495440_apply_op_config",
        @match_conv_2d_bfloat16_forward_16x96x64x192_nhwc_96x1x1x192_fhwc_nhwf_1x1s_0x0p_1x1d_1g$async_dispatch_0_matmul_like_98304x96x192_bf16xbf16xf32 -> @module2066699225626929295_apply_op_config,
        @match_conv_2d_bfloat16_forward_16x96x64x48_nhwc_48x3x3x48_fhwc_nhwf_1x1s_4x4p_4x4d_1g$async_dispatch_0_conv_16x96x64x48x3x3x48_bf16xbf16xf32 -> @module7350505846474122665_apply_op_config,
        @match_conv_3d_bfloat16_forward_b_16x4x48x32x288_ndhwc_288x3x1x1x96_fdhwc_ndhwf_1x1x1s_1x0x0p_1x1x1d_3g$async_dispatch_0_conv_16x4x48x32x3x96x3x96_bf16xbf16xf32 -> @"module-7530347551705388041_apply_op_config",
        @match_conv_3d_bfloat16_forward_b_16x2x48x32x288_ndhwc_288x1x3x3x96_fdhwc_ndhwf_1x1x1s_0x1x1p_1x1x1d_3g$async_dispatch_0_conv_16x2x48x32x3x96x3x3x96_bf16xbf16xf32 -> @"module-1970581355946039598_apply_op_config",
        @match_conv_2d_bfloat16_forward_16x96x64x48_nhwc_48x3x3x48_fhwc_nhwf_1x1s_2x2p_2x2d_1g$async_dispatch_0_conv_16x96x64x48x3x3x48_bf16xbf16xf32 -> @module3276315160131382713_apply_op_config,
        @match_conv_3d_bfloat16_forward_16x2x48x32x288_ndhwc_288x2x1x1x288_fdhwc_ndhwf_2x1x1s_0x0x0p_1x1x1d_1g$async_dispatch_0_matmul_like_16x48x32x288x2x288_bf16xbf16xf32 -> @"module-3100570618954513192_apply_op_config",
        @match_conv_2d_bfloat16_forward_16x96x64x96_nhwc_96x3x3x96_fhwc_nhwf_1x1s_1x1p_1x1d_1g$async_dispatch_0_conv_16x96x64x96x3x3x96_bf16xbf16xf32 -> @"module-5016717600198604863_apply_op_config",
        @match_conv_2d_bfloat16_forward_128x24x48x384_nhwc_384x3x1x128_fhwc_nhwf_1x1s_1x0p_1x1d_3g$async_dispatch_0_conv_128x24x48x3x128x3x128_bf16xbf16xf32 -> @module4561946264403035130_apply_op_config,
        @match_conv_3d_bfloat16_forward_b_16x8x48x32x288_ndhwc_288x3x1x1x96_fdhwc_ndhwf_1x1x1s_1x0x0p_1x1x1d_3g$async_dispatch_0_conv_16x8x48x32x3x96x3x96_bf16xbf16xf32 -> @"module-6425628932703912647_apply_op_config",
        @match_conv_3d_bfloat16_forward_16x2x48x32x288_ndhwc_288x3x1x1x96_fdhwc_ndhwf_1x1x1s_1x0x0p_1x1x1d_3g$async_dispatch_0_conv_16x2x48x32x3x96x3x96_bf16xbf16xf32 -> @module6909153255479619441_apply_op_config,
        @match_conv_3d_bfloat16_forward_b_16x4x48x32x288_ndhwc_288x1x3x3x96_fdhwc_ndhwf_1x1x1s_0x1x1p_1x1x1d_3g$async_dispatch_0_conv_16x4x48x32x3x96x3x3x96_bf16xbf16xf32 -> @module397248974270796247_apply_op_config,
        @match_conv_2d_bfloat16_forward_128x24x48x384_nhwc_384x1x1x384_fhwc_nhwf_1x1s_0x0p_1x1d_1g$async_dispatch_0_matmul_like_147456x384x384_bf16xbf16xf32 -> @module7216368369122952845_apply_op_config,
        @match_conv_2d_bfloat16_forward_16x96x64x48_nhwc_48x5x5x48_fhwc_nhwf_1x1s_8x8p_4x4d_1g$async_dispatch_0_conv_16x96x64x48x5x5x48_bf16xbf16xf32 -> @"module-4520889304652789583_apply_op_config",
        @match_conv_3d_bfloat16_forward_16x4x48x32x288_ndhwc_288x2x1x1x288_fdhwc_ndhwf_2x1x1s_0x0x0p_1x1x1d_1g$async_dispatch_0_conv_16x2x48x32x288x2x288_bf16xbf16xf32 -> @module5408025256171335551_apply_op_config,
        @match_conv_3d_bfloat16_forward_16x4x48x32x288_ndhwc_288x3x1x1x96_fdhwc_ndhwf_1x1x1s_1x0x0p_1x1x1d_3g$async_dispatch_0_conv_16x4x48x32x3x96x3x96_bf16xbf16xf32 -> @"module-2215561608523455322_apply_op_config",
        @match_conv_3d_bfloat16_forward_b_16x8x48x32x288_ndhwc_288x1x3x3x96_fdhwc_ndhwf_1x1x1s_0x1x1p_1x1x1d_3g$async_dispatch_0_conv_16x8x48x32x3x96x3x3x96_bf16xbf16xf32 -> @"module-5385892577352669266_apply_op_config",
        @match_conv_2d_bfloat16_forward_16x48x32x576_nhwc_576x3x3x576_fhwc_nhwf_1x1s_1x1p_1x1d_1g$async_dispatch_0_conv_16x48x32x576x3x3x576_bf16xbf16xf32 -> @module3515167887415924444_apply_op_config,
        @match_conv_2d_bfloat16_forward_128x48x32x384_nhwc_96x1x1x384_fhwc_nhwf_1x1s_0x0p_1x1d_1g$async_dispatch_0_matmul_like_196608x96x384_bf16xbf16xf32 -> @module1669037280268302384_apply_op_config,
        @match_conv_3d_bfloat16_forward_16x2x48x32x288_ndhwc_288x1x3x3x96_fdhwc_ndhwf_1x1x1s_0x1x1p_1x1x1d_3g$async_dispatch_0_conv_16x2x48x32x3x96x3x3x96_bf16xbf16xf32 -> @module1291937590125293741_apply_op_config,
        @match_conv_2d_bfloat16_forward_16x48x32x288_nhwc_288x3x3x288_fhwc_nhwf_1x1s_1x1p_1x1d_1g$async_dispatch_0_conv_16x48x32x288x3x3x288_bf16xbf16xf32 -> @"module-6865705440217477667_apply_op_config",
        @match_conv_2d_bfloat16_forward_16x48x32x768_nhwc_2048x3x3x768_fhwc_nhwf_1x1s_1x1p_1x1d_1g$async_dispatch_0_conv_16x48x32x2048x3x3x768_bf16xbf16xf32 -> @module8204484670706657071_apply_op_config,
        @match_conv_3d_bfloat16_forward_16x8x48x32x288_ndhwc_288x2x1x1x288_fdhwc_ndhwf_2x1x1s_0x0x0p_1x1x1d_1g$async_dispatch_0_conv_16x4x48x32x288x2x288_bf16xbf16xf32 -> @module3663013193463791761_apply_op_config,
        @match_conv_3d_bfloat16_forward_16x8x48x32x288_ndhwc_288x3x1x1x96_fdhwc_ndhwf_1x1x1s_1x0x0p_1x1x1d_3g$async_dispatch_0_conv_16x8x48x32x3x96x3x96_bf16xbf16xf32 -> @"module-2183437910029537272_apply_op_config",
        @match_conv_3d_bfloat16_forward_16x4x48x32x288_ndhwc_288x1x3x3x96_fdhwc_ndhwf_1x1x1s_0x1x1p_1x1x1d_3g$async_dispatch_0_conv_16x4x48x32x3x96x3x3x96_bf16xbf16xf32 -> @"module-4567873843891099811_apply_op_config",
        @match_conv_2d_bfloat16_forward_16x48x32x2048_nhwc_2048x3x1x2048_fhwc_nhwf_3x1s_1x0p_1x1d_1g$async_dispatch_0_conv_16x16x32x2048x3x2048_bf16xbf16xf32 -> @"module-2973162512074653305_apply_op_config",
        @match_conv_3d_bfloat16_forward_16x8x48x32x288_ndhwc_288x1x3x3x96_fdhwc_ndhwf_1x1x1s_0x1x1p_1x1x1d_3g$async_dispatch_0_conv_16x8x48x32x3x96x3x3x96_bf16xbf16xf32 -> @module6559857971860772791_apply_op_config,
        @match_conv_2d_bfloat16_forward_16x192x128x40_nhwc_40x3x3x40_fhwc_nhwf_2x2s_1x1p_1x1d_1g$async_dispatch_0_conv_16x96x64x40x3x3x40_bf16xbf16xf32 -> @module2310130817867977318_apply_op_config,
        @module3663013193463791761_match_conv_2d_bfloat16_forward_16x48x32x768_nhwc_2048x3x3x768_fhwc_nhwf_1x1s_1x1p_1x1d_1g$async_dispatch_0_conv_16x48x32x2048x3x3x768_bf16xbf16xf32 -> @module2054123257679205068_apply_op_config,
        @"module-6425628932703912647_match_conv_2d_bfloat16_forward_128x24x48x384_nhwc_384x3x1x128_fhwc_nhwf_1x1s_1x0p_1x1d_3g$async_dispatch_0_conv_128x24x48x3x128x3x128_bf16xbf16xf32" -> @module7426350141531559482_apply_op_config,
        @module1669037280268302384_match_conv_2d_bfloat16_forward_16x48x32x576_nhwc_576x3x3x576_fhwc_nhwf_1x1s_1x1p_1x1d_1g$async_dispatch_0_conv_16x48x32x576x3x3x576_bf16xbf16xf32 -> @module7834922049502397065_apply_op_config,
        @match_conv_2d_bfloat16_forward_16x48x32x96_nhwc_96x1x3x96_fhwc_nhwf_1x1s_0x2p_2x2d_1g$async_dispatch_0_conv_16x48x32x96x3x96_bf16xbf16xf32 -> @"module-5346593499180439123_apply_op_config",
        @match_conv_2d_bfloat16_forward_16x48x32x96_nhwc_96x1x3x96_fhwc_nhwf_1x1s_0x1p_1x1d_1g$async_dispatch_0_conv_16x48x32x96x3x96_bf16xbf16xf32 -> @module5802777366728024462_apply_op_config,
        @match_conv_2d_bfloat16_forward_16x48x32x96_nhwc_96x1x1x96_fhwc_nhwf_1x1s_0x0p_1x1d_1g$async_dispatch_0_matmul_like_24576x96x96_bf16xbf16xf32 -> @module7305728911802558079_apply_op_config,
        @match_conv_2d_bfloat16_forward_16x48x32x96_nhwc_48x1x1x96_fhwc_nhwf_1x1s_0x0p_1x1d_1g$async_dispatch_0_matmul_like_24576x48x96_bf16xbf16xf32 -> @module6979160480657067220_apply_op_config,
        @match_conv_2d_bfloat16_forward_16x48x32x96_nhwc_288x1x1x96_fhwc_nhwf_2x2s_0x0p_1x1d_1g$async_dispatch_0_matmul_like_16x24x16x288x96_bf16xbf16xf32 -> @"module-1545887152392129862_apply_op_config",
        @match_conv_2d_bfloat16_forward_16x48x32x96_nhwc_288x1x1x96_fhwc_nhwf_1x1s_0x0p_1x1d_1g$async_dispatch_0_matmul_like_24576x288x96_bf16xbf16xf32 -> @module1140498713111542990_apply_op_config,
        @match_conv_2d_bfloat16_forward_16x48x32x96_nhwc_192x2x2x96_fhwc_nhwf_2x2s_0x0p_1x1d_1g$async_dispatch_0_conv_16x24x16x192x2x2x96_bf16xbf16xf32 -> @"module-6012110716509894178_apply_op_config",
        @match_conv_2d_bfloat16_forward_16x24x16x96_nhwc_96x3x1x96_fhwc_nhwf_1x1s_4x0p_4x4d_1g$async_dispatch_0_conv_16x24x16x96x3x96_bf16xbf16xf32 -> @"module-8950407434555634540_apply_op_config",
        @match_conv_2d_bfloat16_forward_16x24x16x96_nhwc_96x3x1x96_fhwc_nhwf_1x1s_2x0p_2x2d_1g$async_dispatch_0_conv_16x24x16x96x3x96_bf16xbf16xf32 -> @module4308463292893212318_apply_op_config,
        @match_conv_2d_bfloat16_forward_16x24x16x96_nhwc_96x3x1x96_fhwc_nhwf_1x1s_1x0p_1x1d_1g$async_dispatch_0_conv_16x24x16x96x3x96_bf16xbf16xf32 -> @"module-901678688851771580_apply_op_config",
        @match_conv_2d_bfloat16_forward_16x24x16x96_nhwc_96x1x3x96_fhwc_nhwf_1x1s_0x4p_4x4d_1g$async_dispatch_0_conv_16x24x16x96x3x96_bf16xbf16xf32 -> @module5757204214897077717_apply_op_config,
        @match_conv_2d_bfloat16_forward_16x24x16x96_nhwc_96x1x3x96_fhwc_nhwf_1x1s_0x2p_2x2d_1g$async_dispatch_0_conv_16x24x16x96x3x96_bf16xbf16xf32 -> @module6755737478891846325_apply_op_config,
        @match_conv_2d_bfloat16_forward_16x24x16x96_nhwc_96x1x3x96_fhwc_nhwf_1x1s_0x1p_1x1d_1g$async_dispatch_0_conv_16x24x16x96x3x96_bf16xbf16xf32 -> @module7294564384001904877_apply_op_config,
        @module7426350141531559482_match_conv_2d_bfloat16_forward_16x48x32x768_nhwc_2048x3x3x768_fhwc_nhwf_1x1s_1x1p_1x1d_1g$async_dispatch_0_conv_16x48x32x2048x3x3x768_bf16xbf16xf32 -> @module6549106516543380535_apply_op_config,
        @module4378881155291204668_match_conv_2d_bfloat16_forward_16x48x32x672_nhwc_576x1x1x672_fhwc_nhwf_1x1s_0x0p_1x1d_1g$async_dispatch_0_matmul_like_24576x576x672_bf16xbf16xf32 -> @module4826834601099627801_apply_op_config,
        @match_conv_2d_bfloat16_forward_16x75x75x64_nhwc_64x3x3x64_fhwc_nhwf_2x2s_1x1p_1x1d_1g$async_dispatch_0_conv_16x38x38x64x3x3x64_bf16xbf16xf32 -> @module3271123471683318830_apply_op_config,
        @match_conv_2d_bfloat16_forward_16x75x75x64_nhwc_64x3x3x64_fhwc_nhwf_1x1s_1x1p_1x1d_1g$async_dispatch_0_conv_16x75x75x64x3x3x64_bf16xbf16xf32 -> @"module-635111237525844018_apply_op_config",
        @match_conv_2d_bfloat16_forward_16x75x75x64_nhwc_64x3x1x64_fhwc_nhwf_1x1s_1x0p_1x1d_1g$async_dispatch_0_conv_16x75x75x64x3x64_bf16xbf16xf32 -> @"module-3936142755456294260_apply_op_config",
        @match_conv_2d_bfloat16_forward_16x75x75x64_nhwc_64x1x3x64_fhwc_nhwf_1x1s_0x1p_1x1d_1g$async_dispatch_0_conv_16x75x75x64x3x64_bf16xbf16xf32 -> @module6580227729474566616_apply_op_config,
        @match_conv_2d_bfloat16_forward_16x38x38x64_nhwc_64x3x3x64_fhwc_nhwf_1x1s_1x1p_1x1d_1g$async_dispatch_0_conv_16x38x38x64x3x3x64_bf16xbf16xf32 -> @"module-8700669116357993800_apply_op_config",
        @match_conv_2d_bfloat16_forward_16x38x38x64_nhwc_64x3x1x64_fhwc_nhwf_1x1s_1x0p_1x1d_1g$async_dispatch_0_conv_16x38x38x64x3x64_bf16xbf16xf32 -> @module8379457896070944627_apply_op_config,
        @match_conv_2d_bfloat16_forward_16x38x38x64_nhwc_64x1x3x64_fhwc_nhwf_1x2s_0x1p_1x1d_1g$async_dispatch_0_conv_16x38x19x64x3x64_bf16xbf16xf32 -> @"module-5039491333864607957_apply_op_config",
        @match_conv_2d_bfloat16_forward_16x38x38x64_nhwc_64x1x3x64_fhwc_nhwf_1x1s_0x1p_1x1d_1g$async_dispatch_0_conv_16x38x38x64x3x64_bf16xbf16xf32 -> @module6779201215905566288_apply_op_config,
        @match_conv_2d_bfloat16_forward_16x38x19x64_nhwc_64x5x1x64_fhwc_nhwf_1x1s_2x0p_1x1d_1g$async_dispatch_0_conv_16x38x19x64x5x64_bf16xbf16xf32 -> @"module-6448970276782038641_apply_op_config",
        @match_conv_2d_bfloat16_forward_16x24x16x64_nhwc_192x1x1x64_fhwc_nhwf_1x1s_0x0p_1x1d_1g$async_dispatch_0_matmul_like_6144x192x64_bf16xbf16xf32 -> @"module-569032847298006118_apply_op_config",
        @match_conv_2d_bfloat16_forward_16x225x225x64_nhwc_64x3x3x64_fhwc_nhwf_3x3s_1x1p_1x1d_1g$async_dispatch_0_conv_16x75x75x64x3x3x64_bf16xbf16xf32 -> @module3370704861027872881_apply_op_config,
        @match_conv_2d_bfloat16_forward_16x225x225x64_nhwc_64x3x3x64_fhwc_nhwf_1x1s_1x1p_1x1d_1g$async_dispatch_0_conv_16x225x225x64x3x3x64_bf16xbf16xf32 -> @"module-3374261158447684555_apply_op_config",
        @match_conv_2d_bfloat16_forward_16x225x225x64_nhwc_64x3x1x64_fhwc_nhwf_1x1s_1x0p_1x1d_1g$async_dispatch_0_conv_16x225x225x64x3x64_bf16xbf16xf32 -> @"module-7846751579171915964_apply_op_config",
        @match_conv_2d_bfloat16_forward_16x1x32x64_nhwc_64x1x1x64_fhwc_nhwf_1x1s_0x0p_1x1d_1g$async_dispatch_0_matmul_like_16x32x64x64_bf16xbf16xf32 -> @module1970200436349607352_apply_op_config,
        @"module-5346593499180439123_match_conv_2d_bfloat16_forward_16x48x32x576_nhwc_576x3x3x576_fhwc_nhwf_1x1s_1x1p_1x1d_1g$async_dispatch_0_conv_16x48x32x576x3x3x576_bf16xbf16xf32" -> @module7070744609584329381_apply_op_config,
        @module8615966579730679787_match_conv_2d_bfloat16_forward_16x48x32x576_nhwc_576x1x1x576_fhwc_nhwf_1x1s_0x0p_1x1d_1g$async_dispatch_0_matmul_like_24576x576x576_bf16xbf16xf32 -> @"module-3610251752505085311_apply_op_config",
        @match_conv_2d_bfloat16_forward_16x48x32x576_nhwc_512x1x1x576_fhwc_nhwf_1x1s_0x0p_1x1d_1g$async_dispatch_0_matmul_like_24576x512x576_bf16xbf16xf32 -> @"module-5863701520949056473_apply_op_config",
        @match_conv_2d_bfloat16_forward_16x24x16x576_nhwc_288x1x1x576_fhwc_nhwf_1x1s_0x0p_1x1d_1g$async_dispatch_0_matmul_like_6144x288x576_bf16xbf16xf32 -> @"module-3870568879285452189_apply_op_config",
        @match_conv_2d_bfloat16_forward_16x1x30x576_nhwc_8192x1x1x576_fhwc_nhwf_1x1s_0x0p_1x1d_1g$async_dispatch_0_matmul_like_16x30x8192x576_bf16xbf16xf32 -> @"module-5617105841929747007_apply_op_config",
        @match_conv_2d_bfloat16_forward_16x1x30x576_nhwc_3x1x1x576_fhwc_nhwf_1x1s_0x0p_1x1d_1g$async_dispatch_0_matmul_like_16x30x3x576_bf16xbf16xf32 -> @module1623047442867551033_apply_op_config,
        @match_conv_2d_bfloat16_forward_16x1x30x576_nhwc_1024x1x1x576_fhwc_nhwf_1x1s_0x0p_1x1d_1g$async_dispatch_0_matmul_like_16x30x1024x576_bf16xbf16xf32 -> @module3504644795186292955_apply_op_config,
        @match_conv_2d_bfloat16_forward_16x1x2x576_nhwc_192x1x1x576_fhwc_nhwf_1x1s_0x0p_1x1d_1g$async_dispatch_0_matmul_like_16x2x192x576_bf16xbf16xf32 -> @module8970479007554311969_apply_op_config,
        @match_conv_2d_bfloat16_forward_16x1x2x576_nhwc_1024x1x1x576_fhwc_nhwf_1x1s_0x0p_1x1d_1g$async_dispatch_0_matmul_like_16x2x1024x576_bf16xbf16xf32 -> @"module-5443390639632347215_apply_op_config",
        @match_conv_2d_bfloat16_forward_16x1x1x576_nhwc_576x1x1x576_fhwc_nhwf_1x1s_0x0p_1x1d_1g$async_dispatch_0_matmul_like_16x576x576_bf16xbf16xf32 -> @module2614628224725838856_apply_op_config,
        @"module-4767593926805822391_match_conv_2d_bfloat16_forward_16x48x32x480_nhwc_480x1x1x96_fhwc_nhwf_1x1s_0x0p_1x1d_5g$async_dispatch_0_matmul_like_16x48x32x5x96x96_bf16xbf16xf32" -> @module891295249512997994_apply_op_config,
        @match_conv_2d_bfloat16_forward_16x48x32x480_nhwc_128x1x1x480_fhwc_nhwf_1x1s_0x0p_1x1d_1g$async_dispatch_0_matmul_like_24576x128x480_bf16xbf16xf32 -> @"module-8731856866266521511_apply_op_config",
        @module5408025256171335551_match_conv_2d_bfloat16_forward_16x96x64x48_nhwc_48x5x5x48_fhwc_nhwf_1x1s_8x8p_4x4d_1g$async_dispatch_0_conv_16x96x64x48x5x5x48_bf16xbf16xf32 -> @module2642271885679815804_apply_op_config,
        @"module-7530347551705388041_match_conv_2d_bfloat16_forward_16x96x64x48_nhwc_48x3x3x48_fhwc_nhwf_1x1s_4x4p_4x4d_1g$async_dispatch_0_conv_16x96x64x48x3x3x48_bf16xbf16xf32" -> @module4635708189346161356_apply_op_config,
        @"module-3100570618954513192_match_conv_2d_bfloat16_forward_16x96x64x48_nhwc_48x3x3x48_fhwc_nhwf_1x1s_2x2p_2x2d_1g$async_dispatch_0_conv_16x96x64x48x3x3x48_bf16xbf16xf32" -> @module5175609052454433875_apply_op_config,
        @module2066699225626929295_match_conv_2d_bfloat16_forward_16x96x64x48_nhwc_48x3x3x48_fhwc_nhwf_1x1s_1x1p_1x1d_1g$async_dispatch_0_conv_16x96x64x48x3x3x48_bf16xbf16xf32 -> @"module-7367110414070804444_apply_op_config",
        @"module-5011352483966054532_match_conv_2d_bfloat16_forward_16x48x32x48_nhwc_48x5x5x48_fhwc_nhwf_1x1s_8x8p_4x4d_1g$async_dispatch_0_conv_16x48x32x48x5x5x48_bf16xbf16xf32" -> @"module-690138260419776630_apply_op_config",
        @match_conv_2d_bfloat16_forward_16x48x32x48_nhwc_48x3x3x48_fhwc_nhwf_1x1s_4x4p_4x4d_1g$async_dispatch_0_conv_16x48x32x48x3x3x48_bf16xbf16xf32 -> @"module-5582403174565171880_apply_op_config",
        @match_conv_2d_bfloat16_forward_16x48x32x48_nhwc_48x3x3x48_fhwc_nhwf_1x1s_2x2p_2x2d_1g$async_dispatch_0_conv_16x48x32x48x3x3x48_bf16xbf16xf32 -> @"module-7142624883020280426_apply_op_config",
        @match_conv_2d_bfloat16_forward_16x48x32x48_nhwc_48x3x3x48_fhwc_nhwf_1x1s_1x1p_1x1d_1g$async_dispatch_0_conv_16x48x32x48x3x3x48_bf16xbf16xf32 -> @module2706563915350689683_apply_op_config,
        @match_conv_2d_bfloat16_forward_16x24x16x48_nhwc_192x1x1x48_fhwc_nhwf_1x1s_0x0p_1x1d_1g$async_dispatch_0_matmul_like_6144x192x48_bf16xbf16xf32 -> @"module-5878059958949092251_apply_op_config",
        @match_conv_2d_bfloat16_forward_16x96x64x40_nhwc_40x1x1x40_fhwc_nhwf_1x1s_0x0p_1x1d_1g$async_dispatch_0_matmul_like_98304x40x40_bf16xbf16xf32 -> @"module-3236419692971477372_apply_op_config",
        @module2054123257679205068_match_conv_2d_bfloat16_forward_16x192x128x40_nhwc_40x3x3x40_fhwc_nhwf_2x2s_1x1p_1x1d_1g$async_dispatch_0_conv_16x96x64x40x3x3x40_bf16xbf16xf32 -> @"module-9078255276051304928_apply_op_config",
        @match_conv_2d_bfloat16_forward_16x450x450x4_nhwc_16x2x2x4_fhwc_nhwf_2x2s_0x0p_1x1d_1g$async_dispatch_0_conv_16x225x225x16x2x2x4_bf16xbf16xf32 -> @module4930649442770000514_apply_op_config,
        @match_conv_2d_bfloat16_forward_16x48x32x384_nhwc_384x1x1x384_fhwc_nhwf_1x1s_0x0p_1x1d_1g$async_dispatch_0_matmul_like_24576x384x384_bf16xbf16xf32 -> @"module-4706140772942856255_apply_op_config",
        @match_conv_2d_bfloat16_forward_16x12x8x384_nhwc_192x1x1x384_fhwc_nhwf_1x1s_0x0p_1x1d_1g$async_dispatch_0_matmul_like_1536x192x384_bf16xbf16xf32 -> @module3494839312045714732_apply_op_config,
        @match_conv_2d_bfloat16_forward_16x8x32x288_nhwc_384x1x1x288_fhwc_nhwf_1x1s_0x0p_1x1d_1g$async_dispatch_0_matmul_like_4096x384x288_bf16xbf16xf32 -> @module813434365613521345_apply_op_config,
        @match_conv_2d_bfloat16_forward_16x48x32x288_nhwc_96x1x1x288_fhwc_nhwf_1x1s_0x0p_1x1d_1g$async_dispatch_0_matmul_like_24576x96x288_bf16xbf16xf32 -> @module2933426064943781440_apply_op_config,
        @match_conv_2d_bfloat16_forward_16x48x32x288_nhwc_384x1x1x288_fhwc_nhwf_1x1s_0x0p_1x1d_1g$async_dispatch_0_matmul_like_24576x384x288_bf16xbf16xf32 -> @module6152709004796445680_apply_op_config,
        @match_conv_2d_bfloat16_forward_16x48x32x288_nhwc_288x3x3x96_fhwc_nhwf_2x2s_1x1p_1x1d_3g$async_dispatch_0_conv_16x24x16x3x96x3x3x96_bf16xbf16xf32 -> @module8250078879978817073_apply_op_config,
        @module8204484670706657071_match_conv_2d_bfloat16_forward_16x48x32x288_nhwc_288x3x3x288_fhwc_nhwf_1x1s_1x1p_1x1d_1g$async_dispatch_0_conv_16x48x32x288x3x3x288_bf16xbf16xf32 -> @module4044126642927762173_apply_op_config,
        @match_conv_2d_bfloat16_forward_16x24x16x288_nhwc_96x1x1x288_fhwc_nhwf_1x1s_0x0p_1x1d_1g$async_dispatch_0_matmul_like_6144x96x288_bf16xbf16xf32 -> @"module-1439035349042860153_apply_op_config",
        @match_conv_2d_bfloat16_forward_16x24x16x288_nhwc_288x3x3x288_fhwc_nhwf_1x1s_1x1p_1x1d_1g$async_dispatch_0_conv_16x24x16x288x3x3x288_bf16xbf16xf32 -> @"module-4383060726791129170_apply_op_config",
        @"module-8838592581327294770_match_conv_2d_bfloat16_forward_16x24x16x288_nhwc_288x3x1x96_fhwc_nhwf_1x1s_1x0p_1x1d_3g$async_dispatch_0_conv_16x24x16x3x96x3x96_bf16xbf16xf32" -> @"module-6247610171180181805_apply_op_config",
        @match_conv_2d_bfloat16_forward_16x24x16x288_nhwc_288x1x3x96_fhwc_nhwf_1x1s_0x1p_1x1d_3g$async_dispatch_0_conv_16x24x16x3x96x3x96_bf16xbf16xf32 -> @module6677447418464053593_apply_op_config,
        @match_conv_2d_bfloat16_forward_16x24x16x288_nhwc_288x1x1x96_fhwc_nhwf_1x1s_0x0p_1x1d_3g$async_dispatch_0_matmul_like_16x24x16x3x96x96_bf16xbf16xf32 -> @"module-5087663706872769327_apply_op_config",
        @match_conv_2d_bfloat16_forward_16x24x16x288_nhwc_288x1x1x288_fhwc_nhwf_1x1s_0x0p_1x1d_1g$async_dispatch_0_matmul_like_6144x288x288_bf16xbf16xf32 -> @"module-6980181089137153937_apply_op_config",
        @match_conv_2d_bfloat16_forward_16x24x16x288_nhwc_144x1x1x288_fhwc_nhwf_1x1s_0x0p_1x1d_1g$async_dispatch_0_matmul_like_6144x144x288_bf16xbf16xf32 -> @module5596125379591511372_apply_op_config,
        @"module-4567873843891099811_match_conv_3d_bfloat16_forward_16x8x48x32x288_ndhwc_288x3x1x1x96_fdhwc_ndhwf_1x1x1s_1x0x0p_1x1x1d_3g$async_dispatch_0_conv_16x8x48x32x3x96x3x96_bf16xbf16xf32" -> @module4283728422656460134_apply_op_config,
        @"module-2183437910029537272_match_conv_3d_bfloat16_forward_16x8x48x32x288_ndhwc_288x2x1x1x288_fdhwc_ndhwf_2x1x1s_0x0x0p_1x1x1d_1g$async_dispatch_0_conv_16x4x48x32x288x2x288_bf16xbf16xf32" -> @module9097057252924939381_apply_op_config,
        @module2310130817867977318_match_conv_3d_bfloat16_forward_16x8x48x32x288_ndhwc_288x1x3x3x96_fdhwc_ndhwf_1x1x1s_0x1x1p_1x1x1d_3g$async_dispatch_0_conv_16x8x48x32x3x96x3x3x96_bf16xbf16xf32 -> @module205055630836799240_apply_op_config,
        @"module-5385892577352669266_match_conv_3d_bfloat16_forward_16x4x48x32x288_ndhwc_288x3x1x1x96_fdhwc_ndhwf_1x1x1s_1x0x0p_1x1x1d_3g$async_dispatch_0_conv_16x4x48x32x3x96x3x96_bf16xbf16xf32" -> @"module-5319777781164961521_apply_op_config",
        @"module-2215561608523455322_match_conv_3d_bfloat16_forward_16x4x48x32x288_ndhwc_288x2x1x1x288_fdhwc_ndhwf_2x1x1s_0x0x0p_1x1x1d_1g$async_dispatch_0_conv_16x2x48x32x288x2x288_bf16xbf16xf32" -> @module1835695904987310839_apply_op_config,
        @"module-2973162512074653305_match_conv_3d_bfloat16_forward_16x4x48x32x288_ndhwc_288x1x3x3x96_fdhwc_ndhwf_1x1x1s_0x1x1p_1x1x1d_3g$async_dispatch_0_conv_16x4x48x32x3x96x3x3x96_bf16xbf16xf32" -> @"module-2958846526441287144_apply_op_config",
        @"module-1589592913381196107_match_conv_3d_bfloat16_forward_16x2x48x32x288_ndhwc_288x3x1x1x96_fdhwc_ndhwf_1x1x1s_1x0x0p_1x1x1d_3g$async_dispatch_0_conv_16x2x48x32x3x96x3x96_bf16xbf16xf32" -> @"module-252229267495831757_apply_op_config",
        @module3244247317313473054_match_conv_3d_bfloat16_forward_16x2x48x32x288_ndhwc_288x2x1x1x288_fdhwc_ndhwf_2x1x1s_0x0x0p_1x1x1d_1g$async_dispatch_0_matmul_like_16x48x32x288x2x288_bf16xbf16xf32 -> @module8217597828895093057_apply_op_config,
        @"module-6865705440217477667_match_conv_3d_bfloat16_forward_16x2x48x32x288_ndhwc_288x1x3x3x96_fdhwc_ndhwf_1x1x1s_0x1x1p_1x1x1d_3g$async_dispatch_0_conv_16x2x48x32x3x96x3x3x96_bf16xbf16xf32" -> @module1362604622253719980_apply_op_config,
        @match_conv_2d_bfloat16_forward_16x8x32x2048_nhwc_576x1x1x2048_fhwc_nhwf_1x1s_0x0p_1x1d_1g$async_dispatch_0_matmul_like_4096x576x2048_bf16xbf16xf32 -> @"module-7088503340171957963_apply_op_config",
        @module3994070714556536465_match_conv_2d_bfloat16_forward_16x8x32x2048_nhwc_288x1x1x2048_fhwc_nhwf_1x1s_0x0p_1x1d_1g$async_dispatch_0_matmul_like_4096x288x2048_bf16xbf16xf32 -> @module2280249657558078362_apply_op_config,
        @module6559857971860772791_match_conv_2d_bfloat16_forward_16x48x32x2048_nhwc_2048x3x1x2048_fhwc_nhwf_3x1s_1x0p_1x1d_1g$async_dispatch_0_conv_16x16x32x2048x3x2048_bf16xbf16xf32 -> @"module-4712683707803685992_apply_op_config",
        @match_conv_2d_bfloat16_forward_16x1x512x2048_nhwc_2048x1x2x2048_fhwc_nhwf_1x2s_0x0p_1x1d_1g$async_dispatch_0_conv_16x256x2048x2x2048_bf16xbf16xf32 -> @module4870784003488566835_apply_op_config,
        @module7350505846474122665_match_conv_2d_bfloat16_forward_16x96x64x192_nhwc_96x1x1x192_fhwc_nhwf_1x1s_0x0p_1x1d_1g$async_dispatch_0_matmul_like_98304x96x192_bf16xbf16xf32 -> @module7219792799496758047_apply_op_config,
        @match_conv_2d_bfloat16_forward_16x48x32x192_nhwc_96x1x1x192_fhwc_nhwf_1x1s_0x0p_1x1d_1g$async_dispatch_0_matmul_like_24576x96x192_bf16xbf16xf32 -> @module8623344520257799845_apply_op_config,
        @match_conv_2d_bfloat16_forward_16x25x1x192_nhwc_192x3x1x192_fhwc_nhwf_1x1s_0x0p_1x1d_1g$async_dispatch_0_conv_16x23x192x3x192_bf16xbf16xf32 -> @module3672812184077734835_apply_op_config,
        @match_conv_2d_bfloat16_forward_16x24x16x192_nhwc_48x1x1x192_fhwc_nhwf_1x1s_0x0p_1x1d_1g$async_dispatch_0_matmul_like_6144x48x192_bf16xbf16xf32 -> @"module-344182433993410583_apply_op_config",
        @match_conv_2d_bfloat16_forward_16x23x1x192_nhwc_192x3x1x192_fhwc_nhwf_1x1s_0x0p_1x1d_1g$async_dispatch_0_conv_16x21x192x3x192_bf16xbf16xf32 -> @module2923642059297261885_apply_op_config,
        @match_conv_2d_bfloat16_forward_16x12x8x192_nhwc_576x1x1x192_fhwc_nhwf_1x1s_0x0p_1x1d_1g$async_dispatch_0_matmul_like_1536x576x192_bf16xbf16xf32 -> @"module-6808213078983379742_apply_op_config",
        @match_conv_2d_bfloat16_forward_16x12x8x192_nhwc_384x1x1x192_fhwc_nhwf_1x1s_0x0p_1x1d_1g$async_dispatch_0_matmul_like_1536x384x192_bf16xbf16xf32 -> @module354875760083644398_apply_op_config,
        @match_conv_2d_bfloat16_forward_16x1x21x192_nhwc_384x1x1x192_fhwc_nhwf_1x1s_0x0p_1x1d_1g$async_dispatch_0_matmul_like_16x21x384x192_bf16xbf16xf32 -> @module4419538543564309907_apply_op_config,
        @match_conv_2d_bfloat16_forward_16x48x32x128_nhwc_64x1x1x128_fhwc_nhwf_1x1s_0x0p_1x1d_1g$async_dispatch_0_matmul_like_24576x64x128_bf16xbf16xf32 -> @"module-271961346453902565_apply_op_config",
        @match_conv_2d_bfloat16_forward_16x48x32x128_nhwc_128x2x2x128_fhwc_nhwf_2x2s_0x0p_1x1d_1g$async_dispatch_0_conv_16x24x16x128x2x2x128_bf16xbf16xf32 -> @module8040801911246838659_apply_op_config,
        @match_conv_2d_bfloat16_forward_16x24x16x128_nhwc_192x2x2x128_fhwc_nhwf_2x2s_0x0p_1x1d_1g$async_dispatch_0_conv_16x12x8x192x2x2x128_bf16xbf16xf32 -> @"module-7653633243858028790_apply_op_config",
        @match_conv_2d_bfloat16_forward_16x1x1x1152_nhwc_576x1x1x1152_fhwc_nhwf_1x1s_0x0p_1x1d_1g$async_dispatch_0_matmul_like_16x576x1152_bf16xbf16xf32 -> @"module-2440973176685083697_apply_op_config",
        @match_conv_2d_bfloat16_forward_16x1x6x1024_nhwc_576x1x1x1024_fhwc_nhwf_1x1s_0x0p_1x1d_1g$async_dispatch_0_matmul_like_16x6x576x1024_bf16xbf16xf32 -> @"module-7602620474587856351_apply_op_config",
        @"module-7508047808273090963_match_conv_2d_bfloat16_forward_128x24x48x480_nhwc_384x1x1x480_fhwc_nhwf_1x1s_0x0p_1x1d_1g$async_dispatch_0_matmul_like_147456x384x480_bf16xbf16xf32" -> @"module-4289354440547745606_apply_op_config",
        @match_conv_2d_bfloat16_forward_128x48x32x448_nhwc_384x1x1x448_fhwc_nhwf_1x1s_0x0p_1x1d_1g$async_dispatch_0_matmul_like_196608x384x448_bf16xbf16xf32 -> @module6151868810080441787_apply_op_config,
        @"module-1507712216101663294_match_conv_2d_bfloat16_forward_128x48x32x384_nhwc_96x1x1x384_fhwc_nhwf_1x1s_0x0p_1x1d_1g$async_dispatch_0_matmul_like_196608x96x384_bf16xbf16xf32" -> @module5741017693719714659_apply_op_config,
        @match_conv_2d_bfloat16_forward_128x48x32x384_nhwc_384x3x3x64_fhwc_nhwf_1x1s_1x1p_1x1d_6g$async_dispatch_0_conv_128x48x32x6x64x3x3x64_bf16xbf16xf32 -> @module3933653812497562654_apply_op_config,
        @match_conv_2d_bfloat16_forward_128x48x32x384_nhwc_384x1x1x384_fhwc_nhwf_1x1s_0x0p_1x1d_1g$async_dispatch_0_matmul_like_196608x384x384_bf16xbf16xf32 -> @"module-3096228896624724732_apply_op_config",
        @"module-4092354048484454229_match_conv_2d_bfloat16_forward_128x24x48x384_nhwc_512x1x1x384_fhwc_nhwf_1x1s_0x0p_1x1d_1g$async_dispatch_0_matmul_like_147456x512x384_bf16xbf16xf32" -> @module5265578897403436880_apply_op_config,
        @module7834922049502397065_match_conv_2d_bfloat16_forward_128x24x48x384_nhwc_384x3x1x128_fhwc_nhwf_1x1s_1x0p_1x1d_3g$async_dispatch_0_conv_128x24x48x3x128x3x128_bf16xbf16xf32 -> @"module-5713853901338332798_apply_op_config",
        @match_conv_2d_bfloat16_forward_128x24x48x384_nhwc_384x1x3x128_fhwc_nhwf_1x1s_0x1p_1x1d_3g$async_dispatch_0_conv_128x24x48x3x128x3x128_bf16xbf16xf32 -> @"module-3307929099139602236_apply_op_config",
        @"module-4520889304652789583_match_conv_2d_bfloat16_forward_128x24x48x384_nhwc_384x1x1x384_fhwc_nhwf_1x1s_0x0p_1x1d_1g$async_dispatch_0_matmul_like_147456x384x384_bf16xbf16xf32" -> @module896857893101354896_apply_op_config,
        @match_conv_2d_bfloat16_forward_128x24x48x128_nhwc_384x1x1x128_fhwc_nhwf_1x1s_0x0p_1x1d_1g$async_dispatch_0_matmul_like_147456x384x128_bf16xbf16xf32 -> @"module-522984183083508851_apply_op_config",
        @module5265578897403436880_match_conv_2d_bfloat16_forward_128x48x32x384_nhwc_384x1x1x384_fhwc_nhwf_1x1s_0x0p_1x1d_1g$async_dispatch_0_matmul_like_196608x384x384_bf16xbf16xf32 -> @module4071637556353897261_apply_op_config,
        @match_conv_2d_bfloat16_forward_b_16x48x32x2048_nhwc_2048x3x1x2048_fhwc_nhwf_3x1s_1x0p_1x1d_1g$async_dispatch_0_conv_16x16x32x2048x3x2048_bf16xbf16xf32 -> @"module-4936958348168552443_apply_op_config",
        @"module-6795424626653063444_match_conv_2d_bfloat16_forward_128x24x48x128_nhwc_384x1x1x128_fhwc_nhwf_1x1s_0x0p_1x1d_1g$async_dispatch_0_matmul_like_147456x384x128_bf16xbf16xf32" -> @"module-101477417419537001_apply_op_config",
        @"module-3096228896624724732_match_conv_2d_bfloat16_forward_128x48x32x384_nhwc_384x3x3x64_fhwc_nhwf_1x1s_1x1p_1x1d_6g$async_dispatch_0_conv_128x48x32x6x64x3x3x64_bf16xbf16xf32" -> @module1730547502948057187_apply_op_config,
        @"module-3610251752505085311_match_conv_2d_bfloat16_forward_16x48x32x576_nhwc_576x3x3x576_fhwc_nhwf_1x1s_1x1p_1x1d_1g$async_dispatch_0_conv_16x48x32x576x3x3x576_bf16xbf16xf32" -> @"module-6050217721080824708_apply_op_config",
        @"module-3374261158447684555_match_conv_2d_bfloat16_forward_16x225x225x64_nhwc_64x3x3x64_fhwc_nhwf_3x3s_1x1p_1x1d_1g$async_dispatch_0_conv_16x75x75x64x3x3x64_bf16xbf16xf32" -> @"module-2239640461400883181_apply_op_config",
        @module4826834601099627801_match_conv_2d_bfloat16_forward_16x48x32x768_nhwc_2048x3x3x768_fhwc_nhwf_1x1s_1x1p_1x1d_1g$async_dispatch_0_conv_16x48x32x2048x3x3x768_bf16xbf16xf32 -> @module7250346489746609524_apply_op_config,
        @module6151868810080441787_match_conv_2d_bfloat16_forward_128x24x48x480_nhwc_384x1x1x480_fhwc_nhwf_1x1s_0x0p_1x1d_1g$async_dispatch_0_matmul_like_147456x384x480_bf16xbf16xf32 -> @"module-6880784253496819418_apply_op_config",
        @"module-6284248032995051943_match_conv_2d_bfloat16_forward_16x225x225x64_nhwc_64x3x1x64_fhwc_nhwf_1x1s_1x0p_1x1d_1g$async_dispatch_0_conv_16x225x225x64x3x64_bf16xbf16xf32" -> @"module-8005105574244046664_apply_op_config",
        @"module-5713853901338332798_match_conv_2d_bfloat16_forward_128x24x48x384_nhwc_512x1x1x384_fhwc_nhwf_1x1s_0x0p_1x1d_1g$async_dispatch_0_matmul_like_147456x512x384_bf16xbf16xf32" -> @"module-5484525665775309725_apply_op_config",
        @"module-7846751579171915964_match_conv_2d_bfloat16_forward_16x225x225x64_nhwc_64x3x3x64_fhwc_nhwf_1x1s_1x1p_1x1d_1g$async_dispatch_0_conv_16x225x225x64x3x3x64_bf16xbf16xf32" -> @module9172635741935866026_apply_op_config,
        @"module-522984183083508851_match_conv_2d_bfloat16_forward_128x24x48x384_nhwc_384x1x1x384_fhwc_nhwf_1x1s_0x0p_1x1d_1g$async_dispatch_0_matmul_like_147456x384x384_bf16xbf16xf32" -> @"module-5578073272369513136_apply_op_config",
        @"module-3307929099139602236_match_conv_2d_bfloat16_forward_128x24x48x384_nhwc_384x3x1x128_fhwc_nhwf_1x1s_1x0p_1x1d_3g$async_dispatch_0_conv_128x24x48x3x128x3x128_bf16xbf16xf32" -> @module8850980168311619132_apply_op_config,
        @module896857893101354896_match_conv_2d_bfloat16_forward_128x24x48x384_nhwc_384x1x3x128_fhwc_nhwf_1x1s_0x1p_1x1d_3g$async_dispatch_0_conv_128x24x48x3x128x3x128_bf16xbf16xf32 -> @"module-911083449296662588_apply_op_config",
        @match_conv_2d_bfloat16_forward_16x8x32x576_nhwc_576x1x1x576_fhwc_nhwf_1x1s_0x0p_1x1d_1g$async_dispatch_0_matmul_like_4096x576x576_bf16xbf16xf32 -> @module4742795371244143238_apply_op_config,
        @module7014507521830355182_match_conv_3d_bfloat16_forward_b_16x2x48x32x288_ndhwc_288x3x1x1x96_fdhwc_ndhwf_1x1x1s_1x0x0p_1x1x1d_3g$async_dispatch_0_conv_16x2x48x32x3x96x3x96_bf16xbf16xf32 -> @module6851109957392407656_apply_op_config,
        @module3276315160131382713_match_conv_3d_bfloat16_forward_b_16x2x48x32x288_ndhwc_288x1x3x3x96_fdhwc_ndhwf_1x1x1s_0x1x1p_1x1x1d_3g$async_dispatch_0_conv_16x2x48x32x3x96x3x3x96_bf16xbf16xf32 -> @"module-8084250599234373333_apply_op_config",
        @"module-1970581355946039598_match_conv_3d_bfloat16_forward_b_16x4x48x32x288_ndhwc_288x3x1x1x96_fdhwc_ndhwf_1x1x1s_1x0x0p_1x1x1d_3g$async_dispatch_0_conv_16x4x48x32x3x96x3x96_bf16xbf16xf32" -> @"module-998895541307183783_apply_op_config",
        @module7216368369122952845_match_conv_3d_bfloat16_forward_b_16x4x48x32x288_ndhwc_288x1x3x3x96_fdhwc_ndhwf_1x1x1s_0x1x1p_1x1x1d_3g$async_dispatch_0_conv_16x4x48x32x3x96x3x3x96_bf16xbf16xf32 -> @module8795648018915444682_apply_op_config,
        @module6909153255479619441_match_conv_3d_bfloat16_forward_b_16x8x48x32x288_ndhwc_288x3x1x1x96_fdhwc_ndhwf_1x1x1s_1x0x0p_1x1x1d_3g$async_dispatch_0_conv_16x8x48x32x3x96x3x96_bf16xbf16xf32 -> @"module-317436726597910684_apply_op_config",
        @module3515167887415924444_match_conv_3d_bfloat16_forward_b_16x8x48x32x288_ndhwc_288x1x3x3x96_fdhwc_ndhwf_1x1x1s_0x1x1p_1x1x1d_3g$async_dispatch_0_conv_16x8x48x32x3x96x3x3x96_bf16xbf16xf32 -> @module8983234031431727099_apply_op_config : (!transform.any_op) -> !transform.any_op
    transform.yield %updated_root : !transform.any_op
  }
}
